model.pt (torch, 107594 bytes, 11 tensors)

weight f4 [2, 2, 3, 3]
000000 46 25 cc 3d a2 d6 ee be cf b1 28 be 18 c5 8e 3e
       0.09968047 -0.46648127 -0.16474079 0.27884746
000010 cf 78 8a bd 19 2a 23 3e d5 a0 43 bd 86 ad f6 be
       -0.06761324 0.15934028 -0.047760803 -0.48179263
000020 02 67 f2 be b0 c3 3b 3d a5 02 f6 be e9 43 dc bd
       -0.47344214 0.04584092 -0.48048893 -0.1075514
000030 db 2d 40 3e 00 b7 36 3d 8a 5e 3f 3e 2d e6 03 bd
       0.18767492 0.044608116 0.18688408 -0.032201935
000040 8f 1a e9 be a2 33 ec be f7 72 03 3e 64 6a 37 3f
       -0.45528075 -0.46133143 0.12836824 0.71646714
000050 1b d3 3d 3f a5 c8 b8 3c 50 ee 55 3e d9 07 8e bd
       0.74150246 0.022556612 0.2089169 -0.069350906
000060 71 0b 39 3e b4 d7 9f 3f 6e d7 8a 3f 69 3a 1c 3d
       0.18070771 1.2487702 1.0846994 0.03814164
000070 f9 86 31 3f 34 36 3d 3f fb 4c a6 ba 76 98 b2 3e
       0.69346577 0.7391083 -0.0012687737 0.34881943
000080 a8 13 ae bd b3 77 1d 3e 57 35 92 3f f2 be 8d 3f
       -0.08499843 0.15377693 1.1422528 1.1073897

bias f4 [2]
000000 1a b3 ac 3f 28 a4 2a be
       1.3492157 -0.16664183

weight f4 [2, 2, 3, 3]
000000 14 a8 a3 be 4c fe 14 bf ef 80 00 bf 06 7a d1 3e
       -0.3196417 -0.58200526 -0.5019674 0.4091341
000010 3f 25 12 3e ef 55 ab 3e c3 57 e1 3d 13 b6 e1 3c
       0.14272021 0.33464 0.11003067 0.02755264
000020 93 c5 f0 be 21 73 13 3f cc b8 87 3f 23 f9 37 3f
       -0.47025737 0.5759755 1.060327 0.7186453
000030 50 4d 1d be 28 fd 33 bf 86 73 61 bf 3e dd 64 3e
       -0.15361524 -0.7030816 -0.880669 0.22350022
000040 7c f7 b0 3d 1d 63 a0 3e 28 3d 59 3e ea dd 90 3e
       0.08640954 0.31325617 0.21214736 0.28294307
000050 4b 24 32 3e 42 27 9a 3e 2f a0 31 3f 06 af f4 3e
       0.17396657 0.30108076 0.69385046 0.47789782
000060 32 27 2d 3e 7b c3 21 3f e4 e3 3b 3f 8f 8c ca be
       0.16909483 0.63188905 0.7339461 -0.39560363
000070 88 1c f7 be f1 9b 32 bf 0c e3 bd be b9 82 51 bf
       -0.48263955 -0.697692 -0.37087286 -0.8184009
000080 25 67 df be 34 eb 66 3e 85 1d 7a bf bc 02 5e bf
       -0.4363338 0.2255066 -0.97701293 -0.8672292

bias f4 [2]
000000 6e 52 53 3e c6 67 b2 3f
       0.20636913 1.3937919

weight f4 [128, 84]
000000 bb e8 b7 bd 4d 4b 90 bc 3d f2 c6 3d 01 da f3 3c
       -0.08979937 -0.017614031 0.09714172 0.029767038
000010 98 aa 3f bd d9 57 70 3c 01 78 9f bd 73 86 d1 bd
       -0.04679355 0.014669382 -0.07786561 -0.10230722
000020 63 28 34 bc 41 20 9f bc 18 66 c2 bd 85 f3 cd 3d
       -0.010995957 -0.01942456 -0.09492129 0.10056213
000030 95 ab ad bd a3 62 95 bd 6b 23 25 3d 17 71 86 3c
       -0.08479992 -0.07294204 0.04031698 0.016411347
000040 49 00 0c bd f9 ef b8 bc 51 d6 95 3d 3f f4 35 bc
       -0.03417996 -0.022575365 0.07316268 -0.011105596
000050 4c fe aa bd 5b e2 87 3c 01 57 c4 3c cc 3e d8 bc
       -0.083492845 0.016587427 0.023967268 -0.026397131
000060 42 3d 42 bd a0 7d ba 3d 03 be 07 3c 9b a9 0c be
       -0.0474217 0.09105992 0.008285048 -0.13736574
000070 e9 3e 6a bd 21 1f 6a 3d 31 d8 96 3c e7 c5 a3 3d
       -0.057188902 0.057158593 0.018413635 0.07996731
000080 b6 6d 87 3d b9 b6 f3 bc a5 24 20 bd 45 16 b1 bd
       0.066127226 -0.029750215 -0.039097447 -0.08646826
000090 0c 89 e0 3c 6c 4b bd bd 12 a1 de bd 84 7b 95 bd
       0.027409099 -0.09242901 -0.108705655 -0.07298949
0000a0 47 6e 8f bd 16 9e f5 bd 23 dc 26 bd 7f 67 00 3d
       -0.070034556 -0.11993043 -0.040737282 0.0313487
0000b0 eb d8 d1 3c 45 4a 7e bd b8 62 c0 3c 93 b5 12 bd
       0.02561613 -0.062082548 0.023484573 -0.035817694
0000c0 fa ab 98 3d 2a 94 9f 3d 03 0c 3c 3d 87 a1 2d bd
       0.07454677 0.07791932 0.045909893 -0.042390373
0000d0 16 94 06 bd 7b a1 b5 bc b3 26 25 bd a8 7b 72 bd
       -0.03285607 -0.022171726 -0.04032011 -0.05919996
0000e0 6d fd 90 3d a7 f3 16 3e 0e b9 c4 3d 0b 75 0f bd
       0.07079587 0.14741383 0.09605609 -0.03502373
0000f0 4e a6 93 3d d9 2f 7d 3d f0 be 84 bd 8e b5 91 3d
       0.072094545 0.06181321 -0.06481731 0.07114707
000100 c7 07 bb 3d e7 84 1f bd a1 df c3 3d a5 04 7c bd
       0.09132343 -0.038945105 0.09564138 -0.061527867
000110 97 a6 96 bc 16 3f 19 bd a5 1d 32 3d 5d 59 e8 3d
       -0.018389983 -0.03741368 0.043485302 0.1134517
000120 63 82 97 3d 15 5a 9f bc cf c0 8f 3d 18 c6 ba 3d
       0.07397916 -0.019452134 0.07019197 0.09119815
000130 92 6e 05 3e 24 e6 0e bc fd 68 b5 3d 46 78 cb bc
       0.1303046 -0.008721862 0.088579156 -0.024837624
000140 d9 ea 81 3d e4 71 05 bd 87 cc cb 3d aa 97 a5 3d
       0.06343622 -0.032579318 0.0995112 0.08085568
000150 0c 1b 13 bc 89 63 c6 3c 43 5c a8 3d e9 38 8f bb
       -0.008978616 0.024217384 0.082207225 -0.004370798
000160 4a 5e 5d 3c db ed b9 bd d2 c3 03 bd 58 ed d0 3d
       0.01351125 -0.090785705 -0.03216917 0.1020152
000170 eb e0 db 3d df 74 0e 3e 1d 8c 29 3e 94 5a d9 3c
       0.10736259 0.1391177 0.16557355 0.026532449
000180 41 f3 3c 3d a0 e8 4f 3d ce 46 20 3b 6c 0f cc bd
       0.046130423 0.050758958 0.0024456265 -0.09963879
000190 dd 31 b1 3c 36 d2 a4 bd 77 65 b8 bd 75 c2 cf bd
       0.021630222 -0.08047907 -0.09003728 -0.101445116
0001a0 96 aa 43 3b 13 8f 9b bd 85 6d d7 3d 04 5e 6f 3d
       0.0029856316 -0.075956486 0.10518936 0.05843927
0001b0 05 15 25 3d 66 9b e3 bd 0d 71 e7 bc be c7 89 3d
       0.04030325 -0.11113624 -0.028252149 0.06727551
0001c0 d4 7f 3b ba 63 96 6f bd c1 64 02 3e 9c a5 64 3d
       -0.0007152532 -0.05849303 0.12733747 0.055822
0001d0 37 a5 51 3d 46 b1 56 bc 4c ea 06 3d 11 9a d9 3c
       0.05118295 -0.013103789 0.032938287 0.026562722
0001e0 11 f6 70 bb a9 e1 4e 3d 27 64 d8 3d bf a1 40 bd
       -0.003676776 0.050508175 0.105659775 -0.047029253
0001f0 c5 1d 0b bd 7d 19 a8 3d b0 fe 8b 3d 64 5f 88 bd
       -0.033963937 0.082079865 0.06835687 -0.06658819
000200 0c 40 f4 bc 1d 15 e9 bb a8 99 83 bd 0e 1f 9a bd
       -0.029815696 -0.0071131126 -0.06425792 -0.075254545
000210 e3 c7 79 3b 8a 9e 0b bd ca c3 77 3d 08 ee 23 3d
       0.0038113527 -0.03408674 0.060489453 0.040021926
000220 bc 5f b9 bd fe e3 a7 ba 00 1e 80 3d 61 0a 53 bd
       -0.09051463 -0.0012809036 0.06255722 -0.05152357
000230 19 cd a9 3d aa 19 a8 bc 8f 40 77 bc 99 a3 d7 bd
       0.082910724 -0.02052005 -0.015091076 -0.10529251
000240 a4 05 45 3c e8 5d bf 3d 37 09 54 3d 22 be 46 bd
       0.012025271 0.09344083 0.0517666 -0.04852117
000250 86 15 6b 3c 7a b3 c3 bd 6b 90 f8 bc 50 d9 27 3d
       0.014348393 -0.09555717 -0.030342301 0.04097873
000260 25 18 23 3d fc 9b 78 bd 1d 88 9e 3d 56 eb 9f 3c
       0.039817948 -0.060695633 0.07740805 0.019521397
000270 23 91 40 3c 99 c7 c8 bd 03 4d 93 3d 83 85 d2 bd
       0.011753353 -0.09803695 0.07192423 -0.102793716
000280 a2 0e 31 bd c4 2b 02 3d 08 a5 bb bc e9 d9 c2 3d
       -0.043226846 0.03178002 -0.022905841 0.09514219
000290 1e fa b1 3d e2 4f fc 3a 66 8a b1 bd 96 c9 b2 ba
       0.08690284 0.0019249881 -0.086689755 -0.00136404
0002a0 2e a5 81 bd 2d 39 fa 3d 4e e7 08 bb 76 4b b0 3a
       -0.06330334 0.12217937 -0.0020889821 0.0013450223
0002b0 17 23 da bd f8 8a f5 3b 56 8a 9d bc d2 30 31 3d
       -0.10651224 0.007493373 -0.019231003 0.04325945
0002c0 f7 40 50 bc 54 7d c0 bd cf 25 8b 3d 5e bf 18 3d
       -0.012710801 -0.093989044 0.06794321 0.037291877
0002d0 35 dd e3 3d 82 f8 e2 3d 7f 36 25 3d e5 78 ee 3d
       0.11126176 0.11082555 0.040335175 0.116441526
0002e0 0e 39 0f 3d cb 4b d4 bb 63 9b 13 be 62 92 49 3a
       0.03496652 -0.006478762 -0.14414744 0.0007689354
0002f0 26 17 a2 bd b7 18 b1 bc f8 05 d9 bb 3d c2 e5 bd
       -0.079145715 -0.02161823 -0.006623026 -0.11218689
000300 c5 e1 c1 bd 27 0e 95 3d f1 06 23 3c 02 18 a3 bc
       -0.0946689 0.0727809 0.009950385 -0.019908909
000310 d7 7a bd bd 8e cf 1b 3d b4 38 0b be 87 ce 71 39
       -0.092519455 0.038039736 -0.1359585 0.00023060488
000320 39 1e 0b be db dd d9 bc a7 5f 35 be 62 9f e3 bb
       -0.13585748 -0.026595047 -0.1771227 -0.00694649
000330 42 3b 9f 3d f4 4c 0b bc 58 6e c6 bd 73 f4 7f 3d
       0.077749744 -0.008502234 -0.09689015 0.062488984
000340 51 8a ea 3d ed df b9 bd 01 99 a7 3d bd 29 ce 3d
       0.11452163 -0.090759136 0.0818348 0.10066555
000350 fc 83 5b 3d 64 5e 50 3e 74 e1 80 3d e1 a9 2f 3e
       0.053592667 0.20348507 0.06293002 0.17154647
000360 1a ed 64 3d 23 ad b8 bd cf f6 6b 3d 68 c1 33 3e
       0.05589018 -0.09017398 0.057608422 0.17554247
000370 8a 63 80 3e 6b b9 66 3e 41 59 ac 3b e2 4f ab 3d
       0.25075942 0.22531669 0.0052596633 0.08364846
000380 c2 46 ad 3d b9 4e 03 be 92 da 6c bd 12 dd 1f 3e
       0.084607616 -0.12822999 -0.057825632 0.15611675
000390 eb d7 32 bd 73 8c d4 3b 09 59 02 3d a6 7d 9c bd
       -0.043662947 0.0064864694 0.03182319 -0.07641153
0003a0 9b 78 01 bd 3b 68 22 3e 50 7e 43 3c 9b c9 7a 3c
       -0.03160916 0.15860073 0.011931971 0.015306856
0003b0 8f 9a ad 3d 4d 88 4d 3d 68 f1 67 3d 4c 60 e6 bc
       0.08476745 0.050178815 0.056626707 -0.02812209
0003c0 b5 12 26 bd 90 01 e7 3c fd e7 bd 3d 4d 9d 1c bd
       -0.040545184 0.028198987 0.09272764 -0.03823595
0003d0 79 00 bc 3d b2 6c c5 3c bd f6 3d 3d 65 9d 38 3d
       0.09179778 0.024099682 0.046377886 0.045071978
0003e0 67 e4 2c 3c 1d 99 c1 bd d4 f7 09 bc e3 85 ad 3d
       0.010552502 -0.09453032 -0.008420903 0.084728025
0003f0 10 87 aa bd d4 96 5c 3c c3 1e 28 bd 0d bc c9 bd
       -0.083265424 0.013463695 -0.04104496 -0.09850321

bias f4 [128]
000000 f3 5f 26 bc 9e 1b ae bd af 34 bc 3d 2e 62 aa bc
       -0.010154712 -0.08501361 0.09189736 -0.020798769
000010 2a a0 b8 bd 7c 4b e8 3d 9b 2e 1e bd b8 c3 ad bc
       -0.09014924 0.113425225 -0.038618665 -0.02121149
000020 55 6c 44 bd 5b a4 a4 3c ca 0a c7 bd 0c 8c 1f 3b
       -0.047954876 0.020097902 -0.09718855 0.002434495
000030 7d 96 3c 3c e6 8b cb 3c 23 5d be bd c7 be c8 3c
       0.011510489 0.024846982 -0.09295108 0.024505032
000040 6c a5 a2 3d 20 a5 d1 3d 39 5e 0c 3e 93 04 88 3c
       0.07941708 0.10236573 0.13707818 0.016603744
000050 6e 17 54 3d 55 15 97 3c 9a 94 ad bb bb 61 b4 bd
       0.051780157 0.01844279 -0.0052972557 -0.08807703
000060 be 48 f3 3d c8 f2 02 3d 52 ed 3d bd af 16 de bc
       0.11879109 0.031969815 -0.046368904 -0.027110426
000070 3b 71 9c 3d e6 fb 0a 3d eb a7 46 bd fb f0 99 bd
       0.076387845 0.033931635 -0.048499983 -0.075166665
000080 cb 65 45 3c 92 64 20 3b ee eb cf bd 1f 7c a3 3d
       0.012048195 0.0024474007 -0.10152422 0.079826586
000090 2d 66 f4 3c 97 34 4a 3d 32 f9 84 3d 0f ff 2b 3d
       0.029833877 0.04936656 0.06492843 0.04199129
0000a0 76 17 b2 3c f5 36 ef 3d 2a 0f a3 3d 0a e4 d2 3d
       0.021739703 0.11680404 0.07961877 0.10297401
0000b0 41 70 9c 3d ce 7c c8 3d 78 ef 37 3c fa e7 c9 bd
       0.07638598 0.097894296 0.011226527 -0.09858699
0000c0 d9 95 91 3c fd 3d ca bd 62 b2 fb bd 7b cf a7 3d
       0.017771648 -0.098751046 -0.12289883 0.08193871
0000d0 6d 9e f7 3d 75 2b 77 bd c8 71 ff ba 8d 64 df bc
       0.12090764 -0.06034418 -0.0019488866 -0.027269626
0000e0 02 18 ca 3d 90 f2 a1 3d 89 5d 39 3d 46 19 78 3d
       0.098678604 0.07907593 0.045255218 0.060570978
0000f0 f9 5c 9f 3d 86 42 8c bc 90 64 95 bd 7f 91 05 3e
       0.07781405 -0.017121565 -0.072945714 0.13043784
000100 80 a5 11 bd 75 72 86 bd cc 6b 68 3b 04 0d fb 3d
       -0.035558224 -0.065648 0.0035464643 0.12258342
000110 fd 9a 3e 3c 48 45 20 bc 5b f5 d8 3d 1d 6b f4 bd
       0.011633632 -0.009782143 0.10593673 -0.11934493
000120 65 5f 12 bd 43 f5 60 3d 8d 4d 9d 3d e0 f8 09 3e
       -0.035735507 0.0549214 0.07680807 0.13473845
000130 90 25 fb bc 58 94 83 bd e0 53 8d bd e4 f3 f7 bd
       -0.03065756 -0.06424779 -0.069007635 -0.12107065
000140 34 09 c8 bd bb b8 45 3d d9 c5 32 3d 5a 60 43 bd
       -0.0976738 0.048271876 0.043645713 -0.04769931
000150 cd cd 0a bb 65 8c ea 3c e7 4b dd bc 1b 12 cb bd
       -0.0021179796 0.028631398 -0.027013732 -0.09915563
000160 c9 67 d5 3d 3f f8 7e bd 02 56 9e bc 65 85 14 3c
       0.10420186 -0.062248465 -0.019328121 0.009065007
000170 05 41 82 bd e1 ae 01 3d 7b 1e ce bd 5b b9 d3 bd
       -0.06360058 0.03166092 -0.100644074 -0.10338088
000180 4e 6b b7 3c b5 37 18 3d e7 14 6a 3d af 12 84 bc
       0.022390034 0.0371625 0.05714884 -0.01612219
000190 96 75 54 3d 32 76 95 bc 80 af 28 3d 33 1c 25 3e
       0.05186995 -0.018244836 0.041182995 0.16124038
0001a0 1c 74 a8 3d 80 7d 0d 3e ce c8 91 3d 51 a6 df bd
       0.08225271 0.13817406 0.071183786 -0.10920394
0001b0 4d 5b b5 3d 39 f0 57 3d ee 92 9a bd 51 68 9e bd
       0.08855305 0.05271933 -0.07547556 -0.077347405
0001c0 dd e3 18 bd 03 72 82 bd 30 75 c9 3d 68 b2 93 bd
       -0.037326682 -0.06369402 0.09836805 -0.07211763
0001d0 83 f1 82 3c 60 eb 80 bd 77 3a 17 be e9 7c 20 3d
       0.015984302 -0.06294894 -0.14768396 0.039181624
0001e0 24 a3 30 3e 9b 79 c5 3d ab f4 82 bd c6 47 b6 3d
       0.17249733 0.09642335 -0.06394323 0.089004084
0001f0 b1 c4 53 bd 63 15 53 3d c4 e8 ef 3d f6 b8 27 3d
       -0.05170125 0.051534068 0.117143184 0.040947877

weight f4 [7, 128]
000000 d2 bc b1 bd 61 48 17 3e bb 8a 44 be f8 27 46 3c
       -0.08678593 0.14773704 -0.19193546 0.01209449
000010 29 03 a4 bc 49 39 9d bd b7 a8 8c 3d b6 a2 a5 3d
       -0.020021038 -0.07676942 0.06868117 0.08087675
000020 33 5a 92 bd ec 12 89 3d 03 1b d3 3e fe 20 22 3d
       -0.071461104 0.06693062 0.41231546 0.039582245
000030 e8 ad c4 bd ae c5 b6 bc 40 fd 05 be 0b 40 7f 3d
       -0.096034825 -0.022311058 -0.13084888 0.062316936
000040 41 f2 33 be 83 cc 34 be ea c3 90 be 71 c3 85 bc
       -0.17572881 -0.1765614 -0.2827447 -0.016328545
000050 67 93 2a bd 8e d9 aa 3d 46 28 d6 bd 93 f3 ab 3d
       -0.04164448 0.083422765 -0.104569 0.083960675
000060 09 7b 84 bd d2 50 72 39 c1 1b 19 3e 85 2f 8e bd
       -0.064687796 0.00023109026 0.14951994 -0.069426574
000070 fd 81 00 be 03 20 14 be 36 42 3c 3e 00 ca ad be
       -0.12549587 -0.14465337 0.18384632 -0.33943176
000080 52 a5 75 3c d3 8f 23 bc bd b1 93 3d d4 b3 8c bc
       0.014993029 -0.009983021 0.07211635 -0.017175592
000090 83 b4 03 be b5 8f 63 bd 33 f1 d3 3d 5b 04 16 be
       -0.12861829 -0.05555697 0.103487395 -0.14650099
0000a0 d8 85 46 bd df 13 39 bd 3f 98 58 be 21 cd 89 bc
       -0.048467487 -0.045184966 -0.21151827 -0.016821446
0000b0 b5 63 d5 bc c2 ca 84 3b 8e f7 cd 3a 6e bf 8e bb
       -0.02604852 0.004052491 0.0015714036 -0.0043563163
0000c0 d8 15 68 bd d7 50 e6 bd 9f 93 51 bd 55 04 eb bd
       -0.056661457 -0.11245888 -0.051166173 -0.11475436
0000d0 33 dd 19 be 1f 0e cf 3c e2 0e e9 bc db 60 98 bd
       -0.15025787 0.025275288 -0.02844948 -0.07440349
0000e0 8a e0 f5 bc fe b2 92 3a e5 6a 16 3e 9f fe 1b be
       -0.030014295 0.001119226 0.14689215 -0.15233849
0000f0 4a 39 e4 3c 73 c0 35 3d 36 56 9e bd c5 49 d7 bd
       0.027859349 0.044372987 -0.07731287 -0.10512117
000100 27 d2 c5 bd f4 44 69 3d f1 76 0f 3d c7 17 02 be
       -0.09659224 0.056950524 0.03502554 -0.12704383
000110 8f 00 87 bd 96 95 0a be 83 8e f6 bc 0c 8e 1f 3e
       -0.065919034 -0.13533625 -0.030097252 0.1558153
000120 af a8 2d 3e be 77 21 be af 95 bf bd 59 f8 63 bd
       0.16958879 -0.15768334 -0.09354722 -0.055656765
000130 18 1f f2 3d 93 36 25 3e f9 da 04 be 66 c1 5d 3d
       0.11822337 0.161341 -0.12974156 0.054139517
000140 20 b6 63 39 87 6d 13 be 08 b9 c4 bd d4 e4 69 bd
       0.00021716254 -0.1439725 -0.096056044 -0.057102993
000150 89 4d 8e bd 30 0c 29 3e 71 29 8a bd 2c 4e 41 bd
       -0.069483824 0.16508555 -0.067461856 -0.04719369
000160 46 5e 03 be d1 6d 88 3d f0 7b 8f 3e 31 39 c4 3b
       -0.12828931 0.06661571 0.28024244 0.005988263
000170 24 a7 95 3d fd cb 93 3b 3d 01 1f 3c 5d 69 e6 bc
       0.0730727 0.0045104013 0.009704885 -0.028126413
000180 73 bb dc bd 2e 7d 60 3c 54 91 85 bd c6 89 74 bd
       -0.107779406 0.01370172 -0.0652186 -0.059701703
000190 68 6e 24 be 55 f2 66 be a7 1d 73 3d fb fc 24 be
       -0.16057742 -0.2255338 0.05935445 -0.1611213
0001a0 56 40 5b 3c 19 af cb bd e4 c6 8c bd 23 e1 0c 3e
       0.013382038 -0.099455066 -0.06873873 0.13757758
0001b0 11 4e c6 3c 9a dc 38 bd 6d 67 27 3d a4 4f d4 3a
       0.024207147 -0.045132257 0.04087012 0.0016198051
0001c0 6e ee f7 bd 15 05 7b 3d 50 71 b2 bb 6d 0c 08 bd
       -0.12106024 0.061284143 -0.005445637 -0.033214975
0001d0 12 1b cf 3c cc 6e 0f 3e 34 61 b8 3c f7 c2 11 be
       0.025281463 0.1400711 0.022507288 -0.1423453
0001e0 73 96 5b bd 42 6a 21 bd b9 41 ab bc 4f 5b 28 3e
       -0.053610276 -0.039407976 -0.020905362 0.16441081
0001f0 c8 94 dc bd 1e cd 2e b9 6a 14 88 3d 4c 50 a0 3c
       -0.10770565 -0.00016670345 0.06644519 0.019569539
000200 95 7b 4e bc 9c ad 47 be 65 d7 43 be 7b 16 a2 bd
       -0.012602706 -0.1949982 -0.19125135 -0.07914444
000210 02 5d 16 be 7d e8 57 3e 70 6c 07 3c 3e 29 4a bd
       -0.14683917 0.21084781 0.0082656 -0.049355738
000220 10 1c 99 bd 66 b0 20 bd ef 98 c4 be 8c 4a 18 be
       -0.074760556 -0.039230727 -0.3839793 -0.14872187
000230 5d 45 b5 3d 23 9c ad bd 2e af ab bd 8d 78 a9 bd
       0.088511206 -0.08477046 -0.08383022 -0.08274946
000240 13 16 b9 be 47 de 74 3d dd 51 bc 3e 2b 0e 91 bc
       -0.36149654 0.059782293 0.36781207 -0.017706951
000250 9a fd 60 be cf 21 79 3d b5 53 a0 bd 79 0d a2 3c
       -0.21971741 0.060823258 -0.07828466 0.019781815
000260 46 99 5c bc e7 55 34 be 76 86 02 3e f6 a8 f7 bc
       -0.013464278 -0.17610894 0.12746605 -0.030231934
000270 79 c6 b6 3e dd 01 14 be 0d 13 1b be 0e c2 f0 bd
       0.35698298 -0.14453836 -0.15143986 -0.11755763
000280 9e fb 8c bd 9d 2e 07 be 2d a2 f1 3c e8 6b fe 3c
       -0.0688393 -0.13201375 0.029496277 0.031057313
000290 9e bf be be 20 c5 a1 3c ed ff 99 bd b9 fb 95 bd
       -0.37255567 0.019747317 -0.07519517 -0.07323403
0002a0 0c be 0d be 22 10 51 bd ce 22 6c 3e 0b 31 04 be
       -0.13842028 -0.051040776 0.23060152 -0.12909333
0002b0 4f 69 69 bd fa f5 28 be 2b f3 57 3e 8b 55 35 3d
       -0.056985196 -0.16500083 0.21088855 0.044271033
0002c0 36 35 e7 bd 80 c8 08 bd e1 d6 b2 bd 1a 7c 15 bc
       -0.11289446 -0.033394337 -0.08732391 -0.009123826
0002d0 62 c8 b7 3d be 37 5a bc c1 34 ae bd 14 4e 97 3c
       0.08973767 -0.013318954 -0.08506156 0.018469848
0002e0 bb 8a ac bd 6e 35 05 3e ae 4b 9a 3e 58 8e 96 bd
       -0.08424898 0.13008663 0.30135864 -0.07351369
0002f0 d2 81 58 bd 9c ab a0 3d d4 7a c0 bc 09 80 a0 3d
       -0.05285818 0.07845232 -0.023496069 0.07836921
000300 14 78 8a bc d4 7f e6 bd f0 2b 8b 3e 52 8f 4b be
       -0.01690296 -0.1125485 0.2718196 -0.19878891
000310 71 4b f7 bc e3 e5 c9 bd 44 8b 9d bc 34 41 5e be
       -0.03018734 -0.098583005 -0.019231446 -0.2170456
000320 d6 d4 75 be 90 74 1c be 67 50 42 be 06 5a 6d 3e
       -0.24006972 -0.1527884 -0.18975984 0.23178872
000330 0d 16 f2 3c 47 ff 08 be bd 96 90 3e 66 e5 7e 3d
       0.02955153 -0.1337863 0.28240004 0.06223049
000340 1d 3b 9b bd ac 8a 2c 3c b8 b0 b4 3e 8e 8b 86 3e
       -0.07579634 0.010531109 0.35291076 0.26278347
000350 36 ac a8 bc 1e 92 7f bb 7c e8 69 bd 3b c2 bf 3b
       -0.02058993 -0.0038997005 -0.05710648 0.0058520115
000360 55 d2 d1 3b aa 64 50 bd 29 b1 aa be 14 96 da 3e
       0.0064032474 -0.05087725 -0.33338287 0.42692626
000370 ed 28 01 bd 2f 70 e9 bc c7 10 4b 3c be 23 f4 3c
       -0.03153317 -0.028495876 0.012394137 0.0298022
000380 55 8c f2 bd f1 ad 7f 3d 2f 54 bf 3e 9d b7 3b be
       -0.118431725 0.062421743 0.37368914 -0.18331762
000390 68 67 aa bd 5e 55 d4 bd 45 51 57 3e 42 8b 01 be
       -0.083205044 -0.10367845 0.21027096 -0.12650779
0003a0 79 42 38 3d e8 19 33 ba 60 a9 11 bc aa 50 7e bc
       0.04498527 -0.00068321684 -0.00889048 -0.0155221615
0003b0 f0 87 fa 3e ee 00 b8 bc 15 3d 23 be 5d 2e c1 3d
       0.48931837 -0.02246138 -0.1594127 0.09432671
0003c0 59 39 2a 3c 7b 37 1e be e6 17 92 bd 7e 2a 49 bd
       0.010389649 -0.15450852 -0.071334645 -0.04911279
0003d0 5c 5e 7a 3d cf 87 9b be ef 9b f5 3d 20 2e 6c bd
       0.061125144 -0.3037705 0.119926326 -0.057661176
0003e0 bb 4c d3 bd 00 12 51 3e 69 a7 87 bc 99 62 29 bd
       -0.103173696 0.20417023 -0.01655932 -0.041353796
0003f0 56 ea 29 3d 50 4a 2d 3e 32 2b be 3d 89 25 e7 bd
       0.041483246 0.16922879 0.092855826 -0.11286456

bias f4 [7]
000000 44 b4 db be 9f b3 05 3e 13 5f 67 3e 18 90 34 3e
       -0.4291097 0.13056801 0.22594862 0.17633092
000010 41 b1 3e bd 03 54 c8 bd 2b 1e b3 bc
       -0.04655576 -0.09781649 -0.021864971

weight f4 [128, 84]
000000 a1 aa 0c bd a2 fd 68 3c 0d f6 b1 3d 2c f1 a6 bd
       -0.034342412 0.014220627 0.086895086 -0.08151469
000010 a0 03 5a 3d 15 71 c4 3d 7d 4e ed bd 0b 1b 2b 3d
       0.053226113 0.09591881 -0.11587236 0.041773837
000020 ab 73 b2 bd 9b 14 11 bd a6 e6 93 3d 76 75 92 3d
       -0.08713468 -0.03542004 0.07221727 0.0715131
000030 c9 67 d6 3c 30 c9 0e bd 70 f4 d1 bd cc b7 c0 3a
       0.026172535 -0.034859836 -0.10251701 0.0014703213
000040 5e 62 4b 3d 77 fe aa bd c4 c6 2e 3d 78 c7 b3 3c
       0.049654357 -0.083493166 0.042670026 0.0219457
000050 f7 b9 de bc 21 c0 66 3d 98 21 9f ba 71 94 89 bd
       -0.027188284 0.056335572 -0.0012140749 -0.06717766
000060 2a 48 11 3b ea d4 3e 3c 73 86 a1 bc 50 cf b0 3d
       0.0022168257 0.011647442 -0.01971743 0.08633292
000070 a8 2a e2 bd 36 09 a1 bd 76 e8 8d bd f9 c0 6e 3d
       -0.11043292 -0.07863085 -0.06929104 0.0582895
000080 e0 81 ab 3d 12 18 41 3d f7 fc f0 3c f0 3e 3e 3d
       0.08374381 0.047142096 0.029417498 0.04644674
000090 4a da 37 bd 1a 9d b9 3c 92 dd a8 3d 2e 26 bd 3c
       -0.04488591 0.02265792 0.08245386 0.023089495
0000a0 7e b4 bb 3d 73 2e 5e 3d ed ac 01 bd 12 1b d5 3b
       0.091652855 0.054243516 -0.031659056 0.006503471
0000b0 1e 5e 3b bd 6c 98 61 3d 7a 31 25 3d 9b 17 ae 3d
       -0.045744054 0.055077 0.040330388 0.08500596
0000c0 98 6f a8 3b 59 3e 38 bd 14 e3 ba 3d f1 3e c2 bd
       0.005140256 -0.044981334 0.09125343 -0.09484661
0000d0 5b d0 9e bd 59 1b 97 3d 50 b9 5e bd 7b dc 61 3d
       -0.077545844 0.07378263 -0.054375947 0.055141907
0000e0 8d c6 6c bd bf b6 e4 bd 62 f5 c5 bd de 23 a1 bd
       -0.05780654 -0.111676686 -0.09665944 -0.07868169
0000f0 5d 6b 74 bc cc 65 8e 3c 0f 49 5c 3c 78 58 c1 3d
       -0.0149181755 0.017382525 0.013445153 0.09440702
000100 29 bf 2c bb 42 db 8f bd 74 41 9f bd 5a 25 6d bd
       -0.0026359058 -0.07024242 -0.07776156 -0.05789695
000110 3a 72 1b bd 2e 17 b7 3d 56 38 b8 bd 95 ff c7 bd
       -0.03795073 0.08939968 -0.0899512 -0.09765545
000120 44 75 83 bd c9 a1 d6 ba a1 cc 57 3d b1 25 be 3d
       -0.06418851 -0.001637512 0.052685384 0.09284533
000130 ce da ac 3b 2d 42 33 3d e0 15 cd bd 6f fe 15 3d
       0.005275107 0.043764282 -0.10013938 0.0366196
000140 3e e6 61 bd ed 46 fd 3c 99 ea 8f 3d 5a 21 b2 3b
       -0.055151217 0.03091761 0.07027168 0.0054361047
000150 1c 71 52 ba 99 c4 17 3c 55 c0 8f 3d 9f 86 d2 bd
       -0.0008027719 0.009263181 0.07019106 -0.10279583
000160 52 9b 9c bd f5 c5 b8 3d 7d 45 36 bd 13 73 c7 3d
       -0.076468125 0.09022132 -0.044499863 0.097387455
000170 54 9a 07 3d e6 7e 81 3d 92 7a f6 bc 6e 2b d2 bd
       0.033106163 0.06323032 -0.030087743 -0.1026219
000180 16 ec 28 3d dc 04 23 bc 06 91 8e 3d 40 97 54 bd
       0.041240774 -0.009949889 0.06961255 -0.051902056
000190 68 81 16 3d 48 13 25 3d e2 54 f8 3c d6 9d 8f 3b
       0.036744505 0.04030159 0.030313913 0.004382829
0001a0 cc cf 34 bd b4 4d 90 bd dc cd 88 bd 10 67 15 bc
       -0.044143483 -0.07046071 -0.066798896 -0.00911881
0001b0 00 79 90 bd 55 24 76 bd 26 2c 2b 3c cf 21 39 3d
       -0.07054329 -0.060093243 0.0104475375 0.045198258
0001c0 ae ad 08 bd e6 55 b9 3d 03 50 95 3c a1 7f 9e bc
       -0.03336876 0.09049587 0.01822663 -0.019347968
0001d0 ec 7f 0f 3c c7 5c 8a bd f3 3d c8 3d 3e 73 b2 3c
       0.008758526 -0.06755977 0.09777441 0.021783467
0001e0 e6 e2 55 3d 2b 77 94 bd f1 76 7c bd 3c 9a ad 3c
       0.05221834 -0.07249292 -0.06163687 0.021191709
0001f0 a3 9f 9e 3d bf 68 c4 3d 67 ce 88 3d 40 f2 7a 3c
       0.07745292 0.09590291 0.06679993 0.015316546
000200 32 34 3a 3c 87 e3 9a bc 48 e5 2c bd 36 97 37 3c
       0.011364983 -0.018907322 -0.042210847 0.011205485
000210 45 2b d3 bd 32 c5 bb bd 46 b9 65 3d ee c7 a7 3c
       -0.103109874 -0.091684714 0.056084894 0.020481076
000220 a0 13 21 3c 3a 15 b4 3d 87 0c 8c 3d 7c dd 0e 3d
       0.009831339 0.08793111 0.06838327 0.034879193
000230 1b 9b b8 3d 7f 5d b5 bd 37 71 be 3d e4 b2 a5 bd
       0.09013959 -0.088557236 0.09298938 -0.08090761
000240 89 34 4a bd e9 15 4d 3d 08 88 ca bd c5 e5 aa 3c
       -0.049366508 0.050069723 -0.09889227 0.020861516
000250 43 f6 d9 bd 5e 38 b5 bd 21 a4 8d bd 32 81 20 bd
       -0.10642674 -0.08848642 -0.06916071 -0.03918571
000260 71 38 04 bc d1 fe 3c 3d 06 72 8d bd b8 fa c0 3d
       -0.008070097 0.04614145 -0.06906514 0.09422821
000270 73 2d 6d bd 69 cd df bc 48 5e 82 3d d3 8e 73 3a
       -0.057904672 -0.027319627 0.06365639 0.0009290997
000280 89 36 44 bd 09 80 a2 3d 0d 07 6e bc b7 90 09 bd
       -0.04790357 0.07934577 -0.014528048 -0.033585276
000290 7d c2 26 3d 55 1a a0 bc c2 f6 12 3d 98 bf f3 3c
       0.040712822 -0.019543806 0.035879858 0.029754445
0002a0 db 7f c1 3d 1c e8 64 3d e3 b5 5f bd c3 ce 82 bd
       0.094482146 0.05588542 -0.05461682 -0.06387093
0002b0 7f c8 90 3d 94 6b 2b 3c 0f 05 9a 3d f4 7a 88 bd
       0.070694916 0.01046266 0.07520496 -0.066640764
0002c0 3a 23 54 bd dc c1 24 bc de 9f 38 3d 49 9b 86 3d
       -0.051791407 -0.010055985 0.045074336 0.06572587
0002d0 7b 9a 95 bb ed 77 58 bc c8 2d 5f 3d 9e af 7b 3b
       -0.0045655346 -0.013212186 0.05448702 0.0038404237
0002e0 e8 a0 68 3d 6b 1e a7 bd 95 73 d4 bd ea 0c c8 bc
       0.056794077 -0.08160099 -0.10373608 -0.02442022
0002f0 32 d0 d4 bd 74 cb c5 bd 60 e1 ca bd 5f aa ea 3c
       -0.103912726 -0.09657946 -0.09906268 0.028645692
000300 78 ed af bd 60 41 a0 3d 72 20 61 3d a3 1f 03 bd
       -0.085902154 0.07824969 0.054962583 -0.032012593
000310 8d 39 72 bd 36 27 c6 3c dd b7 47 3d 7a 50 9e bb
       -0.059136916 0.02418862 0.04875933 -0.004831371
000320 2f 4e 5f bd b2 8f c0 bd 8e 3a 9a bd ff 3b b0 bb
       -0.05451792 -0.09402408 -0.075307 -0.005378246
000330 97 32 c0 3d 6d 46 e5 bd 40 7f d3 3d 69 d6 8b bd
       0.09384649 -0.11195073 0.103270054 -0.06828005
000340 90 1c b4 3d 8a 1b d7 bd 72 3e 6d 3d 67 d0 5c 3d
       0.0879451 -0.105032995 0.05792088 0.053909685
000350 39 d5 b0 bd 8b 5a 23 3d 46 db 9a bd 4e 89 45 bc
       -0.08634419 0.03988127 -0.07561354 -0.012056662
000360 9f 1a 08 bd a2 04 7b bc 9b bd 2f 3d 1a 56 f4 3c
       -0.033228513 -0.015320929 0.04290543 0.029826213
000370 e7 bf 82 bd 48 d4 94 3d ef ce 10 bd 1e 3c d9 3d
       -0.06384259 0.07267052 -0.035353597 0.106071696
000380 27 fe ab 3c 4f c0 b7 3d cf 44 a5 bd f0 72 f6 3a
       0.020995213 0.08972227 -0.08069765 0.0018802565
000390 55 6d cd bd 99 c1 47 3d 6e 18 aa bd 1b 01 84 bd
       -0.10030619 0.048768613 -0.08305441 -0.06445523
0003a0 b1 6e b6 bd a9 63 49 3d bd fc d9 bd 57 e8 83 3d
       -0.089078315 0.04916731 -0.10643909 0.064408
0003b0 e6 a7 cd 3d 7e 7f 9f 3d a4 f0 75 3d 1b b4 a5 bd
       0.1004179 0.07787989 0.060043946 -0.08090993
0003c0 80 79 c7 3b 28 bf c2 bd 56 f0 af bd bf d3 e0 bd
       0.006087482 -0.095091164 -0.08590762 -0.10977887
0003d0 bd 14 27 3d fd 5f 24 3b 33 8a 68 bd de d9 e8 bb
       0.040791262 0.0025081628 -0.056772422 -0.00710605
0003e0 74 dc e5 3c 9d 4a ca bd 92 07 e9 bc 75 c7 8c 3d
       0.028059222 -0.098775126 -0.028445993 0.06873981
0003f0 d2 8e cf bd 90 24 a5 bd 05 29 b7 3b 3f a0 8c 3d
       -0.10134663 -0.08063614 0.0055896067 0.06866502

bias f4 [128]
000000 01 0c b2 3d 14 ce 80 bd 22 44 b3 bd 09 2f 9e bd
       0.08693696 -0.06289306 -0.0875323 -0.07723815
000010 4c 71 bc 3c 93 2e 62 bc 60 30 b9 3d 70 35 90 bc
       0.023003243 -0.0138050495 0.0904243 -0.017603606
000020 c9 f2 96 bc fe 4a a8 ba 51 4b 5d bd c4 50 8b bc
       -0.018426316 -0.0012839732 -0.054026905 -0.017006285
000030 cc 43 4f 3c 7e bc 84 3d 05 95 e5 bb 21 26 27 bd
       0.012650441 0.064812645 -0.00700629 -0.040807847
000040 f4 22 63 bd d8 29 82 3d a2 3d 42 bc 8f 03 4b bc
       -0.055453256 0.06355637 -0.011855515 -0.012390985
000050 88 06 26 b9 be 9c a8 bd af af ba bd 16 18 f6 3c
       -0.00015833427 -0.08233021 -0.0911554 0.030040782
000060 fd 04 c1 bd 0d b6 3a 3d 52 89 c5 bc 9d d7 a4 3d
       -0.094247796 0.045583773 -0.024113331 0.080489375
000070 d4 87 a6 3c 59 ea 89 bd 69 79 da bd f3 4b 6a 3c
       0.02032844 -0.067341514 -0.106676884 0.014300334
000080 67 12 8f bd 40 9a a4 3d c0 28 96 bd de b0 8b 3d
       -0.06985932 0.08037233 -0.07331991 0.06820844
000090 34 0c 6b 3d a6 a8 10 bd 38 64 ab bd ce d0 7a 3d
       0.057384685 -0.035317086 -0.083687246 0.061234288
0000a0 62 c6 a3 bd 06 95 11 bd 55 a5 f3 bc 81 34 c4 3d
       -0.07996823 -0.03554251 -0.029741922 0.09580327
0000b0 0c 04 43 bc 63 86 93 3d f3 01 0b 3c 8c 1d bf 3d
       -0.01190282 0.072033666 0.008484351 0.093318075
0000c0 c5 a6 a7 3d 44 dd 9b bd fd 13 71 bd 19 1f cf bb
       0.08186106 -0.076105624 -0.058856953 -0.006320846
0000d0 12 cc 37 3d 53 da d0 3d 05 9b 10 3d 6f 0d ac bd
       0.04487235 0.10197892 0.03530409 -0.08401
0000e0 ae 1b b8 bd 4e d3 bd 3d e4 ee 79 bd 69 bf 8b 3d
       -0.089896545 0.09268819 -0.06101884 0.06823618
0000f0 82 3b 84 bd 15 08 35 bd 8a 0b 98 3d 7e d6 cf 3d
       -0.06456663 -0.04419716 0.07424076 0.10148333
000100 5d d1 b1 3d ee 9e 74 bd 9a 81 6d 3d 44 d5 81 3c
       0.08682511 -0.05972188 0.057984926 0.015848763
000110 d3 ad b7 bd 03 38 c5 bc cc b5 c7 bd 07 a6 2c bd
       -0.08968701 -0.02407456 -0.09751472 -0.042150524
000120 31 b0 9e bd 42 18 bf bd 5b 51 d0 bb d7 03 8a bd
       -0.077484496 -0.09330799 -0.0063573546 -0.06739014
000130 b9 9a 14 3d ba c5 3c 3b 12 22 fa 3c 14 74 1b 3d
       0.036280368 0.0028804378 0.030533824 0.037952498
000140 7f d2 88 bd ff f7 ce 3c 88 22 d6 3a 09 25 a9 3d
       -0.06680774 0.025264738 0.0016337195 0.08259017
000150 fa f6 93 bd 7f 91 dc 3c e6 75 35 3d 3e d2 7b bd
       -0.072248414 0.026924847 0.04430189 -0.0614798
000160 0f 11 0d bd d1 65 58 3d 6f 80 7e 3d 56 c7 e3 bb
       -0.034440096 0.052831475 0.062134203 -0.006951253
000170 7c fe c4 bd c5 d7 bc bc 1e ec 1b bd d3 38 83 bd
       -0.096188515 -0.023052106 -0.038066976 -0.06407323
000180 2b f3 ad bd 0e a8 eb bc 19 66 c1 bd 3a df 92 3c
       -0.08493646 -0.028766658 -0.09443302 0.017928708
000190 2b 52 3a 3d 16 97 d3 3c f5 0a 82 bd 2e 68 b2 bc
       0.045488518 0.02582888 -0.06349746 -0.021778192
0001a0 8d 34 aa bd 6e 62 a0 bc 01 db e0 3d d8 10 69 3d
       -0.083108045 -0.019578185 0.10979272 0.05690083
0001b0 05 66 ee 3c 4f a0 9a 3d 9f 56 49 bc d0 f7 91 bc
       0.029101381 0.07550108 -0.0122887185 -0.017818362
0001c0 b4 56 b8 3d 17 43 98 3d 99 93 29 3d bb a7 5b bd
       0.09000912 0.07434671 0.041400526 -0.053626757
0001d0 4f 08 53 bd 8d df e5 3b 7d 48 45 3c 8d 4f eb bc
       -0.051521596 0.0070151747 0.012041208 -0.028724456
0001e0 70 7f 90 bd f2 e4 e3 bd c4 db cc 3d 79 3a 16 bd
       -0.07055557 -0.11127652 0.100028545 -0.036676858
0001f0 f0 cf 42 bd b6 1d be bd db bb 3d bd 40 84 50 bc
       -0.047561586 -0.09283011 -0.04632173 -0.012726843

weight f4 [1, 128]
000000 b9 35 f1 3c e5 f6 75 38 44 2d 2b bc 57 44 23 3c
       0.029444562 5.864249e-05 -0.010447804 0.009965024
000010 41 c0 e7 bc 30 32 c5 bc 3a 42 d1 3c 52 7c 0e bd
       -0.028289916 -0.024071783 0.025544275 -0.03478653
000020 5f 17 8c 3c ea 75 2c bd 5e f0 24 bd 5d 1d 17 bb
       0.017100988 -0.04210464 -0.040268295 -0.0023058273
000030 1b e4 b3 bc b8 d6 65 bd 5e f0 ac bc 8c 5e 90 3c
       -0.021959355 -0.056112975 -0.02111071 0.017623208
000040 1b 1c a6 3c 5a 87 a5 3b 39 5a a4 b9 d1 16 69 3a
       0.020277074 0.0050515356 -0.0003134774 0.00088916445
000050 16 04 90 bd b9 40 1a bd f0 9b ee 3c 89 07 79 3d
       -0.07032029 -0.03765938 0.029127091 0.0607982
000060 af 61 a0 bc 63 98 89 bc 09 5d 1d 3c 54 ef d6 3b
       -0.01957783 -0.016796296 0.009604701 0.006559292
000070 8e b8 f7 3c 59 4e af 3c 91 49 8b 3d 56 bb 89 bc
       0.03023937 0.021399664 0.06801141 -0.016812962
000080 6c 7d a6 bc 80 51 b6 bb 98 b9 79 3c d5 2a 70 bb
       -0.020323478 -0.005563915 0.015242003 -0.0036646624
000090 a8 9b c0 bb 7a 4d 30 3d 6a 8b a8 3c 35 0a 5e bc
       -0.0058779307 0.043042637 0.02057429 -0.013552238
0000a0 a6 e7 90 3d 43 41 99 3d a1 d5 6c 3c 24 fb 47 bc
       0.070754334 0.07483151 0.01445523 -0.012205873
0000b0 1b 07 78 bc e9 71 5b 3c 22 7f 36 bc 88 f0 5c 3c
       -0.015138413 0.0133938575 -0.011138709 0.0134850815
0000c0 6d 86 6e bd bc 09 2f 3c 0b 14 81 3d ae 5e 85 bc
       -0.058233667 0.010683473 0.06302651 -0.016280498
0000d0 88 e3 cc 3c 33 2d 06 3c 67 65 af bc 0f f7 52 bd
       0.02501084 0.008189487 -0.021410657 -0.051505145
0000e0 b9 5b ab bc 52 39 5a 3d 9b 8c ef 3a a8 4e a4 bd
       -0.02091776 0.05327732 0.0018276157 -0.08022815
0000f0 12 22 8c 3c 34 4b d8 bc 67 38 65 3c b0 9f 70 3b
       0.01710609 -0.026403047 0.013990498 0.0036716275
000100 44 c1 3e 3c c6 19 1b 3d f1 1f 52 3d 5c c7 02 3d
       0.011642758 0.037866376 0.051299993 0.031928405
000110 34 28 c9 bd 1a 4c 47 3d 81 5c 81 3c 0c 8c 8a bd
       -0.09822121 0.04865656 0.01579118 -0.06764993
000120 a7 2b d3 3b 61 ab 0c bd 2d ea a5 3c 95 90 eb bc
       0.0064444127 -0.034343127 0.020253265 -0.028755466
000130 13 df af 3c a2 5e 80 bd 5c f4 c3 3c e9 90 37 bd
       0.021468675 -0.0626805 0.02392023 -0.04481593
000140 92 76 19 bc 0b c9 7e bd 0c eb a1 3c 07 9c 5d bc
       -0.009366648 -0.06220345 0.0197654 -0.013525969
000150 c6 e4 da 3c a5 7f 8f 3c fe e8 3a bb 50 dd ca bc
       0.026720416 0.01751692 -0.0028520222 -0.024763733
000160 20 6e 00 bc e5 17 b0 3c 0e 62 1f bd ec 47 ac bc
       -0.007838756 0.021495769 -0.03891187 -0.021030389
000170 56 3c 83 bd ac ba 96 bd 77 a1 e1 bc df 84 27 bd
       -0.064079925 -0.073598236 -0.027542813 -0.0408982
000180 48 2c 76 3d 62 4c d9 3c c6 c5 2b bd d3 3b 14 bc
       0.060100824 0.02652568 -0.04193666 -0.009047466
000190 ef 5b 06 3d e2 4b 09 bc 9b 0e 48 3c 79 68 3d bd
       0.03280252 -0.008379908 0.012210513 -0.04624221
0001a0 30 a3 3f 3d fc 4d cb bc 2d 15 c3 3c a2 21 8c bc
       0.046786487 -0.02481746 0.023813808 -0.017105881
0001b0 96 1e 2e 3c 21 9c ad bd a4 3e 2b bd f0 6a 19 bd
       0.010627409 -0.08477045 -0.041807786 -0.0374555
0001c0 1c c4 14 bc 75 8c 0a 3d 50 87 f8 3c 34 a4 28 bd
       -0.009079959 0.033825357 0.03033796 -0.04117222
0001d0 28 7e c7 bc 84 e6 08 bd 18 97 1c bd 8b 80 13 3d
       -0.024352148 -0.03342296 -0.03823003 0.03601126
0001e0 95 e1 38 bd d6 f3 46 3d 46 45 82 3c 82 e5 0b bd
       -0.045137007 0.048572384 0.015902173 -0.034154423
0001f0 0b 02 45 bc 2b 46 b1 3d ba 5b aa 3d 0a 7e dc 3c
       -0.012024413 0.086559616 0.08318277 0.026915569
