model.pt (torch, 107530 bytes, 11 tensors)

weight f4 [2, 2, 3, 3]
00000000: 3ce0 b93d e6fa a3bd e32e 34be 578e 293e
00000010: 9e0d 57be bea4 013e 8a75 8a3d a5fa e1bd
00000020: 98f4 dbbd c95e 033e 0164 b1bd ae70 073e
00000030: 7ba2 e33d a44b 33be fc32 ca3c d4f1 0a3b
00000040: 1a16 60be 8148 0a3e bd62 c7ba f5df 56bc
00000050: af7d 5f3e b3ca 473e ca58 a23c 842f e8bc
00000060: 830d 4c3d a6e8 9ebd 82dd 3fbe 15cf 133e
00000070: a660 a43d f150 1c3e c590 2f3c b3b1 28be
00000080: 8b80 21be 0682 523e bd65 afbd 8f56 f8bb
0.090759724 -0.080068395 -0.17596011 0.16558205 -0.21001288 0.126605 0.067607 -0.11034135
-0.10740012 0.12829126 -0.08661652 0.13226578 0.11114975 -0.17509323 0.024682514 0.002120127
-0.21883431 0.1350422 -0.0015211921 -0.013114919 0.21825288 0.19510917 0.019817729 -0.02834297
0.049817573 -0.07759218 -0.18736842 0.14434464 0.08026247 0.15265252 0.010715668 -0.16474037
-0.15771692 0.20557413 -0.08564327 -0.007578678

bias f4 [2]
00000000: 78fa e1bd 8579 20bd
-0.11034101 -0.03917839

weight f4 [2, 2, 3, 3]
00000000: caad 283e 11e7 59be f8d4 72bd 0de6 113e
00000010: 8fdb 523d 19eb 5ebe 32bc 58bc 3235 69be
00000020: c2e9 adbd e401 da3d e679 6abe 9734 1c3e
00000030: 957c f23d ef34 213d 0f7b 6cbe ded3 543e
00000040: 462a 283e 3190 193c 6ecc 213e 1535 573e
00000050: d88f 2a3d 6539 43bd 2489 45be 396e e6bd
00000060: e88e 56bd 08fc 38bd ed8b 8fbc 2193 e9bc
00000070: b84e 043e f9aa 6c3d 7463 5f3e 25db 4abe
00000080: dbc4 bc3d 5d86 573d 95c6 5fbd e0f8 22be
0.16472545 -0.21279551 -0.059285134 0.14247914 0.05147892 -0.2176937 -0.013228463 -0.22774199
-0.084918514 0.10644892 -0.22898063 0.15254436 0.118401684 0.039357122 -0.23093818 0.20783946
0.16422376 0.009372757 0.1580064 0.21016343 0.041641086 -0.047662158 -0.19290596 -0.11251492
-0.05238238 -0.04516223 -0.017522776 -0.02851254 0.12920654 0.05778024 0.21815282 -0.1981016
0.09217235 0.052618373 -0.054632742 -0.15915251

bias f4 [2]
00000000: 5507 133e 7397 723d
0.14358266 0.059226464

weight f4 [128, 84]
00000000: 4a81 94bd 4548 15bd c4d1 a4bc c512 863d
00000010: cfd4 583d 374a d33c 1b91 663d 7031 8c3d
00000020: 32b3 933d eb97 adbd 0b97 803b e35c d1bd
00000030: f5f1 713d 3696 d23c f8e6 cd3c 5500 3e3d
00000040: bd51 bb3d f017 98bd 872c 753d 93d6 083c
00000050: e48c 023c 6bfe 9a3d 0138 f33c f783 a23d
00000060: d98b 953c 0ccb a5bd dad0 50bd f4bf a5bd
00000070: 20d9 51bd dd83 5c3d 073a 7a3c 4b79 9f3d
00000080: afc3 9e3d 64b8 703d 7836 a43d 60e6 5d3c
00000090: 04d2 debd ce34 db3d f267 dfbd 85bd 033c
000000a0: cf71 cabd 0726 c7bd b26c 8a3d b614 533d
000000b0: 79a0 4d3d c2ab 7fbd 26b5 03bd 5663 76bd
000000c0: 67b8 913c bf42 26bc 7e9c 543d c67a dabb
000000d0: 33d5 9a3d ea7b a1bd 9e87 9c3d d4d9 7f3d
000000e0: f380 56bc f8e2 d33d b2cd db3c a839 96bc
000000f0: 5a37 853d fd86 85bd 4439 4dba 508a 773d
00000100: ef57 a6bd d092 cf3c 256a df3b b304 a1bd
00000110: b410 ab3c 14bf 0b3d 5e14 50bd 4d2d 283c
00000120: 174e bfbd f580 59bd 51c8 42bc 45b9 d0bc
00000130: 4a85 bbbd c384 913d 7d84 d0bd cfa0 f13b
00000140: 2528 013d 8909 d5bd 1b13 67bd 1bb0 cebd
00000150: 1860 8f3d 8a71 68bd f908 903d 7f77 11bd
00000160: a459 b5bb 9099 85bd 0ba8 6abd 42ad 87bd
00000170: 7120 4a3d 073e 0cbd 245b d13d 0770 d6bd
00000180: 6317 7e3d e5fc 83bd 1b9c bc3d 1301 68bc
00000190: f975 b73d 3028 f13c e1cb debd 1401 c43d
000001a0: 633f 82bd bbec ddbc da22 763b 150f cbbd
000001b0: c1d2 9a3d fdf4 91bd 764c ab3d 9bb3 c9bd
000001c0: 1e48 d2bd 9ebe 82bc c043 9abd e797 883d
000001d0: bfdd a5bd 79b5 dabc dcfe a3bd 8728 f6ba
000001e0: 60af 6dbd 39d7 7fbd 9cd4 ab3d 9516 63bd
000001f0: f830 d6bd b959 873d edd3 00bb 6c24 bdbc
00000200: 5c72 a63d b0e4 c33d 7c89 96bd dee5 b03d
00000210: 0a38 08bd bdd2 04bd b282 71bc 2fc3 b4bd
00000220: d31b 2e3d 9bed b93c a3de c0bc e672 d33d
00000230: aea2 79bd a530 c73d 846f 163d 792d 433d
00000240: 68be 6c3d 000d 6abd fc6c 923d 951f a7bd
00000250: c64c d33d be1f a43d 0957 9f3d 6bb8 413c
00000260: 7f12 d9b8 283e dcbc 9dc8 843d 39fd fa3c
00000270: 3900 d03c f162 cfbd f4a4 a3bd 6487 cd3c
00000280: a02f 6cbd 0b6f 9bbd b5df aabd 76e2 2c3c
00000290: 377a a8bd 938e f53b 72f0 043d e7e6 7cbd
000002a0: 54d5 da3d d302 d5bd 6de7 4b3d a92c 4abd
000002b0: f62f f1bc d9b9 b7bd ce8a a03d c14e 933c
000002c0: 9dde f3bb bef3 d13d c93c 90bd a1b1 8b3d
000002d0: 0d8f 84bd ff1f 14bc 406f 32bd 2c15 123d
000002e0: d4ba dabd 7d1d d93d 0820 11ba 48ea 563d
000002f0: 27c6 a23d 8daa 7dbd 4f0c 5cbd 45cf 363d
00000300: 790a 8abd 5156 b8bd dd6f 193d 9eac d83c
00000310: 274c f63c 2692 adbd a67e 7c3d 78d6 5ebd
00000320: 5046 a13d 5de7 1ebc ae38 9b3d f801 e93c
00000330: 96ac 82bb 8495 a3bd 8f16 94b8 6736 dabd
00000340: 350a 8e3d b8d4 4e3d c7a7 b63d 5c32 6ebd
00000350: 8998 593c d7fe b83d 05f3 9bbd 3423 06bb
00000360: 67b6 a6bd 7450 d13d 223f a8bd fbb9 afbd
00000370: 2f4a 973b d39b 8fbb 3219 173d 0567 e5bb
00000380: 7d54 ab3b 80a4 2d3d bcbd 80bd 0a2e ad3d
00000390: bdda 6a3d 070b 65bd 0e86 783d fe33 ebbb
000003a0: fec9 3a3d 6241 b93d 886c b93c f718 163d
000003b0: c604 d1ba 8e17 103d 69ff 26bd a937 c2bd
000003c0: c196 653c 2dff 9ebc 2e27 863d 9057 d93d
000003d0: cf2a 2f3d ec28 09bd 8d0c 473d 2833 4d3d
000003e0: 32f2 893d 610f debd acee c3bd b9c2 a63d
000003f0: 9317 e03c 9de9 793c 4d18 33bd dd77 c6bd
-0.072512224 -0.036445875 -0.020119555 0.06546549 0.052937325 0.025792224 0.056290727 0.06845367
0.07211913 -0.08476242 0.0039242557 -0.10222795 0.05906864 0.025706392 0.025134549 0.046387035
0.0914645 -0.07426441 0.059856918 0.00835194 0.007968161 0.075680576 0.02968979 0.079353265
0.018255161 -0.08095369 -0.050980426 -0.08093253 -0.051232457 0.053836692 0.015272624 0.07786807
0.077521674 0.0587696 0.080182016 0.013543695 -0.10879901 0.10703431 -0.10908498 0.00804079
-0.098849885 -0.0972405 0.06759013 0.051533423 0.050201867 -0.06241966 -0.03215518 -0.060153328
0.017788125 -0.010147749 0.051907055 -0.0066674678 0.07560196 -0.07884963 0.076430544 0.062463596
-0.013092267 0.10346025 0.026831482 -0.01833804 0.06504698 -0.065198876 -0.00078286626 0.06043464
-0.08122241 0.02533856 0.0068180733 -0.078622244 0.020881988 0.034117773 -0.050800674 0.010264707
-0.09341066 -0.0531015 -0.011888579 -0.025478968 -0.09156282 0.071054004 -0.1018152 0.007373906
0.031532425 -0.10402209 -0.056414705 -0.10092183 0.0700075 -0.056748904 0.070329614 -0.03551435
-0.0055343676 -0.0652343 -0.057289165 -0.06624843 0.049347345 -0.03423884 0.10222462 -0.10470586
0.062034022 -0.0644472 0.09209462 -0.014160412 0.089580484 0.029438108 -0.108787306 0.09570518
-0.06359746 -0.027090421 0.0037557394 -0.09914986 0.07559729 -0.07126806 0.08364193 -0.0984871
-0.102676615 -0.015960034 -0.075324535 0.06669598 -0.08098935 -0.026697861 -0.08007595 -0.0018780389
-0.05802858 -0.06246111 0.083901614 -0.055441458 -0.10458559 0.0660891 -0.0019657568 -0.023088656
0.08127281 0.09565103 -0.07350442 0.08637594 -0.033256568 -0.03242754 -0.014740633 -0.08826291
0.042507004 0.022696307 -0.023543661 0.103246495 -0.06094616 0.09726075 0.036727443 0.047650788
0.057798773 -0.057141304 0.07149693 -0.08160321 0.10317378 0.08013867 0.077802725 0.011823754
-0.000103508115 -0.026885107 0.064835764 0.030638324 0.025390731 -0.101262935 -0.07990447 0.025088973
-0.057662606 -0.07589539 -0.0834345 0.010552039 -0.08226436 0.007493803 0.03245587 -0.061743643
0.1068522 -0.10400929 0.04978125 -0.049358997 -0.029441815 -0.089709945 0.07838975 0.017981889
-0.007442309 0.10251568 -0.07042844 0.068209894 -0.06472597 -0.009040832 -0.043563128 0.035664722
-0.10680166 0.106013276 -0.0005536084 0.05246952 0.07947951 -0.061930228 -0.053722676 0.04463126
-0.06740279 -0.090008385 0.037460197 0.026449498 0.03006561 -0.08475141 0.06164422 -0.054403752
0.07874739 -0.009698716 0.0757917 0.028443322 -0.003987859 -0.07987502 -7.061392e-05 -0.10654908
0.069355406 0.050495833 0.0891872 -0.058153495 0.013280996 0.09032982 -0.07614712 -0.002046776
-0.08140259 0.10220423 -0.08215167 -0.08580395 0.0046169977 -0.0043825894 0.036889262 -0.0070008063
0.0052285776 0.042393208 -0.06286189 0.08456047 0.05733751 -0.05591872 0.06067472 -0.007177829
0.04560279 0.09045674 0.02263476 0.036644902 -0.0015946857 0.035178714 -0.04077092 -0.094832726
0.014012993 -0.019408787 0.06550442 0.10612404 0.042765435 -0.03348629 0.048595954 0.050097615
0.06735648 -0.10842777 -0.095670074 0.08142609 0.027354991 0.015253452 -0.043724347 -0.09690831

bias f4 [128]
00000000: 009a debd 3cc7 d3bd 6fe5 58bc b0f4 883d
00000010: a43f 6a3c 34ab cd3d 4e70 66bd 4a41 ce3d
00000020: 41ce ddbd 0d6d af3d 13a4 fcbc 72cf ab3d
00000030: 4e15 b0bd be1c a6bd 3108 64bd f843 bfbd
00000040: 8410 873d d7ef 2dbd ecf8 32bd 42a7 dc3d
00000050: 3def 5dbd 0391 a4bc d751 cfbc a579 ef3c
00000060: 72c6 c3bd a1d2 80bd 9798 023d 1161 333c
00000070: e945 d23c 6291 b8bd abf6 6f3d ee07 97bc
00000080: f482 573d c78d 9bbd e1ea b83c 6618 97bd
00000090: 98bd dd3c 426b b83d 88e0 be3d e0b9 a1bd
000000a0: 95a9 9dbc 953e 75bd ace7 bcbd 92b9 bc3d
000000b0: 629c d03d 8f11 afbd 9521 3a3d 9c47 12bd
000000c0: 2b76 25bd c170 dd3b 6a0c adba 969f 923d
000000d0: 908e 87bd 9cf3 d93d 38ee fb3c 6346 cd3d
000000e0: 10b7 d1bd ca0d 663c df23 96bd b97e b13c
000000f0: c8f2 c4bd 79d5 ae3c 8173 8e3d 83b0 c83c
00000100: 10ec c7bb 7e3e bb3d de00 1fbd 7aae 453b
00000110: 915c 823d 21d6 293d bbd5 debd 0f5a 61bd
00000120: 169d c1bc 9943 0abc 408d 89bd 32bc 573d
00000130: 98e4 a43d 40de 963d fb3c 8f3d f41a d6bd
00000140: 15e5 cebc 92e2 54bd 2afc 37bd 5f2a a53d
00000150: 475b 23ba 70e2 bbbd 8224 4d3d 0278 78bd
00000160: d1b4 3cbd 5519 ba3b 2588 82bd fa18 a8bd
00000170: 9867 8d3d 1028 c23d 508f b7bd 2a54 833d
00000180: c970 60bd 30cf 6f3c 85ad 713c 538f 08bd
00000190: 8493 373c a67f c5bd 30aa aabd f0b3 cabd
000001a0: d445 15bd 464e 51bd 6a25 0fbd fb06 403d
000001b0: d859 a8bd e5bf c93c 073f 36bd 258c 5cbd
000001c0: 5b4a c53d 3929 3d3d 34e3 df3c c350 cc3d
000001d0: 8a6b 103d f5cf b03c 5b61 a03d 197f 9f3d
000001e0: b827 543d b40a 8ebd 7a8b e93c 9b8d 7ebd
000001f0: d387 4dbb 94c8 08bd 8136 8abc 98e2 c6bd
-0.10869217 -0.10340735 -0.013238295 0.066872954 0.0142974 0.1004242 -0.056259446 0.10071047
-0.108303554 0.08565722 -0.030839955 0.083891764 -0.085978135 -0.08110951 -0.055671874 -0.09339136
0.06594947 -0.042465057 -0.04369442 0.107740894 -0.054183234 -0.020088678 -0.025307579 0.02923281
-0.09559335 -0.06290174 0.031883802 0.010948435 0.025668101 -0.090121046 0.05858485 -0.018436398
0.05261512 -0.07595401 0.022572936 -0.073777005 0.027067944 0.09004833 0.0932017 -0.07896781
-0.019245902 -0.059874136 -0.092238754 0.09215082 0.10186078 -0.08548271 0.045442183 -0.035712823
-0.040395897 0.006757826 -0.0013202552 0.07159345 -0.066189885 0.10642168 0.03075324 0.10023191
-0.102399945 0.0140413735 -0.073310606 0.021666871 -0.09616619 0.021342026 0.06955624 0.02449823
-0.006101139 0.09142779 -0.038819186 0.003016381 0.06365312 0.041463975 -0.108806096 -0.055017527
-0.023634475 -0.008438968 -0.067163944 0.05266971 0.08051413 0.073666096 0.06994053 -0.1045436
-0.02525572 -0.051973887 -0.044918217 0.08064722 -0.0006231558 -0.09174049 0.050083645 -0.060661323
-0.046070877 0.0056792893 -0.06373624 -0.08207889 0.069045246 0.094802976 -0.089628816 0.064125374
-0.05479506 0.0146368 0.014750843 -0.03333981 0.011204604 -0.09643488 -0.08333242 -0.098976016
-0.036443546 -0.051100038 -0.03494779 0.046881657 -0.08220261 0.024627635 -0.0444937 -0.05384459
0.09633323 0.04618189 0.027330019 0.099763416 0.035258807 0.021583537 0.07831069 0.07787914
0.05179569 -0.06935635 0.02850889 -0.062146764 -0.0031361475 -0.03339441 -0.016871693 -0.09711188

weight f4 [7, 128]
00000000: a7f0 023d 777f 483a a228 53bc 2b9c 9cbd
00000010: 3616 193d f2d9 543d 9a74 213d 1ebb 87bc
00000020: 4f44 95bd ad15 053d 2811 8c3d e668 973c
00000030: 12bb 2dbc fdb4 633d 9d4a 7a3d 03a8 99bd
00000040: 671a 7bbd 926e 6c3b f15e febc 4ed7 6dbd
00000050: 0370 2cbd 2e6e fcbc af13 a7bd dc50 f33b
00000060: 8bb7 5aba 7368 983c 83e3 8bbc 8a91 7fbc
00000070: da35 813d 133c c7bc bbd5 b03d ab21 56bd
00000080: 716c 703d 4fe9 4d3c 1cf6 083c 73b7 9c3d
00000090: 0037 9e3d 7a59 b4bc c176 973c cb69 d8bc
000000a0: 2c92 24bc b9c1 87bc 8cf2 963c 70ad 893d
000000b0: e290 54bd 7a60 28bd afd2 b4bd 5ec7 903d
000000c0: d1aa 4d3c f986 063c 3c14 4b3d e112 3abd
000000d0: 8bbc 9e3d 8551 17bd 94d9 46bd bf4c 5cbd
000000e0: e750 90bd e936 4ebc 58d5 7d3b bb18 023d
000000f0: 5429 cd3b d4d6 003d d9e4 05bd 76fd 513d
00000100: 2f6d 813d c878 9bbd c9db 23bd 6b9b 593d
00000110: f397 9e3d 3bdd 9dbd 702d 25bd c301 9cbd
00000120: bc73 783d e522 45bd ab64 c73c 56bc 80bd
00000130: 59d7 aabc 7d0d b23d 177e a2bd 54ae b13d
00000140: 0072 8f3c e9d5 9a3d d1b6 ab3d 5b76 693d
00000150: a31d 9bbc 5ea7 303c c678 543a bdbc 4dbd
00000160: 41df 163d 94e2 9fbd 45bb c6bb 5e3c ecbc
00000170: 6b89 a3bd fddb 50bd 6aba 47bd 61d0 acbd
00000180: d783 5dbb f253 4cbd e216 a43d d799 a0bc
00000190: 37d1 a4bc dc19 93bd 80d1 5dbd fa26 853d
000001a0: b14e 8cbd 10cf 95bd deb2 d83c e863 1f3c
000001b0: 95ac 8b3d cb38 d63c d933 1ebc 8fd0 4fbd
000001c0: 720a a53d 584e 82bd 9b42 92bc 1061 ccbc
000001d0: b65e e7bc a396 65bd 94d0 023b 57bc a83d
000001e0: 7742 973d 4ff9 c4bc a4c1 1fba 8cc8 89bd
000001f0: 5083 813d 9098 543d 6f7e b0bd 30ed 4f3d
00000200: 1f23 85bc 4aa3 84bd 0d55 afbd 425a e53a
00000210: 61aa 903d bf56 a03d 1acf 753d 738b 0ebd
00000220: 080f 9bbb 3263 413c 3e67 9fbc e06e d8bc
00000230: 67a0 31bc 5a9e 2c3d df55 7cbd f1eb f2bc
00000240: 0020 d23b 0cf0 8ebd 0f24 ad3c fbba 4d3d
00000250: d85b 403c 75c5 66bd da44 6c3b cdec 93bd
00000260: fc42 84bd e25b a8bc 2a9f ad3d a56b a23b
00000270: 96b7 97bc 957f 473d 3525 a53b 5e2e 853c
00000280: b1f4 63bd f517 713d df9c 493c ecc7 893c
00000290: dc84 1e3b 5f4e 023d 21de 55bd 4329 913d
000002a0: 8552 813c 3535 8b3c 610a 5abd acbe 7d3d
000002b0: 5eb1 a73d 8e46 873b 0ab8 3f3d 4315 8c3d
000002c0: 8535 b9bc f600 a53d b634 6e3b f549 993d
000002d0: 995f 0ebd f2b9 b0bd f6ee 673c 67ff b03a
000002e0: 8b1f e13c e44c 1f3d 9451 403d 9170 36bd
000002f0: 133e c1bb 8ad3 9ebd df26 673d acaa 88bc
00000300: 5d99 9e3a 7ed7 923d b001 b1bd b202 8fbc
00000310: b524 6b3a a1a5 913c e47c 1e3d c2a2 54bd
00000320: 92c4 4fb9 902a 7cbd b23c 933d f778 cd3b
00000330: 6277 e53c 3c00 99bc 17cc 35bd 1a1e 38bd
00000340: 4ac7 3ebc d483 87bd 19e0 a73d 481d 17bd
00000350: e36e debc e5a6 a93c 38c8 66bd 990a 76bc
00000360: 7deb 093d 39f5 4e3d 9bb0 8cbd d748 9cbd
00000370: 7796 c9bc c539 893a 30bf 983d 04cd 33bd
00000380: 1039 963c e07b a23d bc09 8e3d 65c4 983c
00000390: d954 38bd c8bf 4ebd 45f2 42bc 8fac ab3d
000003a0: 3e14 92bd d1b5 5fbd 464c 66bd 489b 233d
000003b0: 43c7 173d 7c87 053c c354 b2bd e98b f63b
000003c0: 5b15 b33b ab2b 9d3d 19d5 383d 250f 2bbd
000003d0: 6888 a63d fe5d 04bd 1ae5 c2bb 9c3f 96bd
000003e0: 7969 003d 36c6 a83d 4993 843d 3831 abbd
000003f0: 6165 0b3b e3f9 a8bd df73 8cbd 49ef a9bd
0.031967785 0.0007648388 -0.012888106 -0.07646974 0.037374698 0.05196566 0.03941784 -0.016568717
-0.072884195 0.032491375 0.0683921 0.018482637 -0.010603683 0.055592526 0.061106313 -0.07502749
-0.061304476 0.0036076647 -0.031051131 -0.05806666 -0.04209901 -0.030814257 -0.08158051 0.0074254107
-0.000834339 0.018604493 -0.01707626 -0.015598664 0.063090995 -0.024320638 0.08634516 -0.052278202
0.058697168 0.012567832 0.008359458 0.07652178 0.07725334 -0.022015322 0.018489243 -0.026417634
-0.010044616 -0.016571866 0.018426202 0.06722534 -0.051895984 -0.041107632 -0.08829247 0.07069276
0.012552933 0.008210891 0.049579844 -0.04542816 0.077508055 -0.036942977 -0.048547342 -0.05378413
-0.07046681 -0.012586334 0.00387319 0.031761866 0.00626103 0.031454876 -0.03268895 0.05126711
0.06319653 -0.075913966 -0.040004525 0.053126734 0.07743826 -0.07708212 -0.040326536 -0.076175235
0.060657248 -0.04812898 0.024339994 -0.06285922 -0.020854639 0.08693979 -0.07934206 0.086758286
0.017510414 0.075603314 0.08384479 0.05699764 -0.01893503 0.010782091 0.0008105155 -0.050228823
0.036834005 -0.07806888 -0.0060648047 -0.028837379 -0.07985195 -0.050991047 -0.048761763 -0.084381826
-0.0033800506 -0.049884744 0.08012177 -0.019604607 -0.020119293 -0.07182667 -0.054154873 0.06501575
-0.06850947 -0.07314885 0.026452478 0.009728409 0.06820027 0.026150128 -0.009655916 -0.050736006
0.08058633 -0.06362599 -0.017854026 -0.024948627 -0.028243404 -0.05605186 0.0019960748 0.08239048
0.07385724 -0.02404466 -0.00060942234 -0.067277044 0.06323874 0.051903307 -0.08617865 0.05076331
-0.016252099 -0.064764574 -0.08561144 0.0017498212 0.07063747 0.078290455 0.06001196 -0.034800958
-0.0047320165 0.011803435 -0.01945841 -0.026420057 -0.010841466 0.042143203 -0.06160533 -0.029653521
0.006412506 -0.06979379 0.021135358 0.050227147 0.011740647 -0.056340653 0.003605178 -0.072229005
-0.06458089 -0.020551626 0.08477624 0.00495668 -0.018520158 0.048705656 0.005039836 0.016257461
-0.055653278 0.058860738 0.012305467 0.016818963 0.0024188077 0.03181302 -0.05221379 0.07087948
0.015786419 0.016993145 -0.053232554 0.061949417 0.08188127 0.004128284 0.046806373 0.06839993
-0.022608528 0.08056824 0.0036347336 0.07484809 -0.034759138 -0.08629216 0.014156094 0.001350385
0.027480861 0.038891688 0.0469528 -0.044540945 -0.0058972924 -0.077551916 0.056433555 -0.016682945
0.0012100149 0.07170008 -0.086429 -0.01745734 0.00089700083 0.017779173 0.038693324 -0.05191303
-0.00019814286 -0.06156403 0.07189311 0.0062705236 0.028011028 -0.01867687 -0.04438409 -0.044950582
-0.011644194 -0.06616941 0.0819704 -0.03689316 -0.027152484 0.020709464 -0.056343287 -0.015017175
0.033671845 0.05052683 -0.06869622 -0.076310806 -0.02460788 0.0010469487 0.07458341 -0.04389669
0.018337756 0.079337835 0.069354504 0.018648336 -0.045002792 -0.050475866 -0.011898582 0.08382522
-0.07132767 -0.054616753 -0.056225084 0.03994301 0.037055265 0.008149978 -0.08707573 0.007524003
0.0054651923 0.07674345 0.0451251 -0.04176249 0.08131486 -0.0323162 -0.005947721 -0.07336351
0.031350587 0.08240931 0.06473405 -0.08358997 0.0021270143 -0.08250787 -0.06858038 -0.08297593

bias f4 [7]
00000000: 2571 f73c 7f0d 32bd 6ef5 acbd 3db9 42bd
00000010: 4bac a6bd 6d59 5d3d 016b ddbc
0.030205319 -0.043469902 -0.084452495 -0.04753994 -0.08138331 0.05404036 -0.027028563

weight f4 [128, 84]
00000000: e9c0 a1bd 1328 b63c 1e12 973d 78c2 ad3d
00000010: 8ac8 b3bd 7291 663d 64e0 b93d 3b48 c0bd
00000020: f55b 123c 8ef8 313d d796 c33d ae64 70bd
00000030: e621 cb3c 39af 573d 66ec 74bd fcb6 763d
00000040: 6225 443d 9ac6 2f3d c4a0 c1bc fd37 773c
00000050: 9e36 2c3d bd56 c93b 0a05 6dbd f63a c4bb
00000060: 5d30 f3bc 2d0b 23bd 0bf7 ff3c e244 923b
00000070: 7777 adbd de75 c63d cb52 6dbd 2e88 2abc
00000080: a194 413d 3f08 46bd a8c2 7b3c 8e05 973d
00000090: 1119 51bc 6d3d 103d 5073 443c 09de b53d
000000a0: 8f4a 75bd 7bdc e3bb 0fdd 363d 9843 0fbd
000000b0: bca4 f13c dd8d d93d 33cb ba3d 58ea d23d
000000c0: 440f 203d 0af6 56bd 41f3 71bd 0828 063d
000000d0: c0a6 c73d 06eb 9c3c 2737 e33c 68af 82bd
000000e0: 12c0 88bc 6061 27bc df2b fa3c a465 69bc
000000f0: 7fcb 693c bcd6 4fbd 85d0 f83c 6ef0 92bd
00000100: 0fc0 80bd 13a2 8ebc 1c41 a6bd 7319 debd
00000110: 4120 21bc 73e3 a6bd a21d 57bd f630 5a3c
00000120: 2c7d 70bd fa23 b1bd 33b0 b63d 6cdf 8dbb
00000130: 2e70 0f3b d638 0e3d 5907 1abd a634 c93d
00000140: 7dc4 adbd 9c37 eebc 6d41 ab3d 5a20 ebbc
00000150: 7967 a03d edc3 cdbd 9c1b 5d3d a277 3dbd
00000160: 1b79 cabc 54a6 a0bb 23b0 ce3c 73e1 97bd
00000170: 16cf b53d 8611 383d 3511 76bd 669b 10bd
00000180: 80c9 24bc 844c 73bc 1683 77bd efda b93d
00000190: 0a7c a73d 9777 e93b a557 c1bd 2af3 8f3d
000001a0: 0881 a0bd 90c5 bfbd 05a2 803d 0a30 f33c
000001b0: 2b91 9dbc e0f5 a2bd d77c 05bd 28d4 b23d
000001c0: 2093 243d 1256 db3d 371a bfbd 6e22 2c3c
000001d0: 4c44 763d a0e9 d3bd 7bcd 0b3b e832 c63c
000001e0: aa31 693d 7c50 3abc 20b2 813d a0d9 b3bd
000001f0: aa33 62bd 4ee6 02bd 4142 8cbd b298 a23d
00000200: 312f 2ebd e636 c3bd e10a 8b3d 70f0 a93c
00000210: 7807 ab3d 6cd8 653d 2959 c53d 6dae 43bd
00000220: 2515 a4bd 903e 983d 4932 4dbb 2d3b 68bd
00000230: ee8f a9bd 6fbc d03c a326 99bc 7742 28bb
00000240: 7f50 25bd c774 9e3d 721d 373d d934 cd3c
00000250: 3826 01bd a550 d13d c030 99bd 31f7 853d
00000260: 1c61 d03c 468d 7b3d f826 babb 337e b43d
00000270: 2ae5 d7bc fcdb 23bd ff40 b93c 1044 583c
00000280: 0292 24bd 78c9 8c3c 0af0 8b3d b7a6 2f3d
00000290: 22bf b7bd 7924 9abd 3a51 c5bd c0a9 013d
000002a0: fcf1 d3bd 0244 093d 57ac 3abd 5780 a53c
000002b0: a11d 92bc e619 b13d 9bd0 203c 0324 543d
000002c0: d2e2 993c 2119 b53d 48fe bcbd 30e2 01bc
000002d0: f3bf 90bd 4834 3a3c b002 bb3d 2cd8 073d
000002e0: f769 ff3c a076 f5bc 7b10 353c d2e4 0e3d
000002f0: c620 563d 59dc 2ebd 396a 3abd 714a 3b3d
00000300: 6f9a a6bd 8218 2fbd 3005 b8bd a80f c9bd
00000310: f774 9d3c 0912 69bd 7e01 dc3b cc29 91bc
00000320: 2044 b73d c613 aabd e2b0 cbbc 6d84 113d
00000330: 8d53 7c3b 61fd 1c3d d026 833c 0b11 d53d
00000340: 2dce 14bd f2a3 4ebc 3398 d4bd 214b b7bd
00000350: d31a 8abd 2707 603b 96fc 95bd d5de 61bc
00000360: 7812 9c3d 1bb4 5c3a 5c12 9c3d af69 333c
00000370: 4397 413d 8634 023d 58a3 b6bd 4c66 b4bd
00000380: 75eb 7dbc 26ae a23c 281d 6cbc 7ab4 a9bd
00000390: 30b4 0d3d ded8 bbbd 2ab3 d9bd 24cf 68bd
000003a0: 75f4 de3d daa3 933d f17d 8bbb b715 593d
000003b0: afa9 d8bd 2e75 abbd 0d79 87bd c12b 143d
000003c0: e244 b0bd 7844 fc3c 396e 163a b6f4 3ebd
000003d0: 9275 1b3d a388 5c3d 0b37 dfbd 9e1c 8d3d
000003e0: 66bf 1f3d 1a2e ad3c 5960 47bc 08c9 cb3d
000003f0: df6b 7bbd da3f 533c 618e c6bd adac a03d
-0.07898123 0.022235906 0.073765025 0.084843576 -0.08778484 0.05629105 0.09076002 -0.09388777
0.008933057 0.04344993 0.09550255 -0.058689766 0.024796437 0.05265734 -0.05979576 0.0602331
0.047887214 0.04291401 -0.02363623 0.015089032 0.042044275 0.006144373 -0.057866134 -0.005988474
-0.029686147 -0.03980558 0.031245729 0.004463778 -0.08470052 0.0969045 -0.057940286 -0.010408444
0.047260884 -0.048347708 0.015366234 0.07374106 -0.012762324 0.03521483 0.011990383 0.088802405
-0.059885558 -0.0069537736 0.04464441 -0.03497657 0.029497497 0.106227614 0.091207884 0.10298604
0.03907706 -0.052480735 -0.059069876 0.03275302 0.09748602 0.019155037 0.02773626 -0.06381112
-0.016693149 -0.010216087 0.030538497 -0.014245424 0.014269709 -0.050741896 0.030372867 -0.071747646
-0.06286632 -0.017411267 -0.081178874 -0.10844698 -0.00983435 -0.08148851 -0.052518494 0.013317337
-0.058713123 -0.0864944 0.08920326 -0.0043296125 0.0021886933 0.03472217 -0.037604664 0.09824495
-0.08484743 -0.029079251 0.08362088 -0.02870195 0.07832236 -0.100471355 0.05398141 -0.04625667
-0.02471595 -0.0049026404 0.025230473 -0.07416048 0.08877389 0.044938587 -0.060075004 -0.03530445
-0.010057807 -0.014849786 -0.060427748 0.090749614 0.081779554 0.007124852 -0.09440545 0.07028802
-0.07837111 -0.09363854 0.06280903 0.029685993 -0.01923426 -0.07957053 -0.03258976 0.08731872
0.04017937 0.10709776 -0.09331172 0.010506256 0.060123727 -0.10347295 0.0021332193 0.024194196
0.05693213 -0.011371728 0.06332803 -0.08781743 -0.055225052 -0.031957917 -0.068485744 0.079392806
-0.042525474 -0.095319554 0.06789184 0.020744532 0.08351034 0.0561146 0.096361466 -0.047773767
-0.080118455 0.07433808 -0.003131049 -0.05669706 -0.082794055 0.025480477 -0.018695181 -0.0025674382
-0.04035997 0.07737117 0.044705816 0.025049614 -0.03153059 0.1022046 -0.074800014 0.06541289
0.02543693 0.061414026 -0.005680915 0.08813133 -0.026354391 -0.040004715 0.022614 0.013199821
-0.040178306 0.017185912 0.06832893 0.0428836 -0.089720026 -0.07526488 -0.09634633 0.031656027
-0.10348889 0.033512123 -0.045574512 0.020202799 -0.017836394 0.08647518 0.00981536 0.051792156
0.018784914 0.088426836 -0.09228188 -0.007927462 -0.070678614 0.011365004 0.09131372 0.033165142
0.031178458 -0.029963791 0.0110512925 0.03488619 0.05227735 -0.04269061 -0.045511458 0.04572529
-0.081349246 -0.04274798 -0.089853644 -0.09817439 0.019220812 -0.056901965 0.006714045 -0.017720126
0.08948541 -0.08304553 -0.024864618 0.03552668 0.0038501949 0.03832758 0.016009718 0.10403641
-0.036329437 -0.01261233 -0.10380592 -0.089498766 -0.067433976 0.003418395 -0.073235676 -0.013786037
0.0762071 0.0008419172 0.07620689 0.01095049 0.047263395 0.03178837 -0.08917874 -0.08808574
-0.015498032 0.019858431 -0.014411248 -0.08286376 0.03459567 -0.091722235 -0.10629876 -0.05683817
0.1088647 0.072089866 -0.0042569567 0.052999225 -0.105792396 -0.083719596 -0.066148855 0.03617454
-0.08606888 0.030794367 0.00057384704 -0.046620093 0.03795392 0.053841244 -0.108991705 0.06890224
0.03900089 0.021140147 -0.012168967 0.09950453 -0.06138217 0.012893641 -0.09695125 0.07845435

bias f4 [128]
00000000: c993 fe3c 2631 f63c 71fe 2ebc 4eb3 83bd
00000010: db0b 3abc cfbf a3bd 99d5 4c3d 96ce a73d
00000020: 9646 9d3d 4298 95bb 85e7 36bd ded9 9bbc
00000030: 9075 033b 8f30 833d 88a6 24bc 6bc4 7a3d
00000040: 5403 0fbd 3070 bf3d 27fa 3ebd 15d8 0ebc
00000050: ad6e 073c f6da 833d 881b b4bc 0fb5 01bd
00000060: e685 843b 21d5 993b 505e 9a3d 481c d3bb
00000070: d5fe 09bd a977 6d3d 8a1b c93d 4582 7f3c
00000080: 76d2 cc3c 6f84 b23d 7079 853d 29ad 993d
00000090: c428 96bd 351a 9abd 27e6 85bd c599 3dbd
000000a0: f9d7 9b3d 2481 b1bd 5087 0fbb 5cd9 143d
000000b0: cd7f 83bd 6eb6 673d 7930 b63c 82e8 273d
000000c0: c732 823d f0d0 b7bd 339c 1e3d b0c1 283d
000000d0: 5de9 b93d efa4 ad3d d809 e33c c2a6 99bb
000000e0: 1e39 2abd 98a1 29bd 8356 20bc 49c1 2a3d
000000f0: d79b 05bd a099 dc3d 6588 d1bd 2981 f33c
00000100: 8614 9cbd 46bc 693c 2eaa d03d c232 46bd
00000110: fa2a 86bc 3d6f 503d 0f08 e7bc f2f7 c7bd
00000120: c10a a1bd 9228 5b3d 7708 953d 47e3 fbbb
00000130: b78a 56bd 0606 883d 1696 f2bc 0401 dabd
00000140: bfa3 1d3d 19f7 f6bc 1144 bdbc 8e99 d63d
00000150: b102 913d 2892 aabd 025d b5bd 9ff6 b0bd
00000160: 519a 64bd 5f28 b73d 3a8a 3cbd 89ac 5c3d
00000170: 89e2 1d3d 685b 8dbd bc87 d03c ac9f d83d
00000180: c33d 65bd a830 53bd c59e 77bb 956b 023d
00000190: 030b 9f3d 8dba 913d 2498 b4bd 939f a53d
000001a0: ed55 8a3c 205c 68bd 737c d4bd 6cb6 afbd
000001b0: c723 0fbd 3620 e43c 274f 30bd 85cc b4bd
000001c0: c7dd b53d 7d6a 103d ded5 8bbd 77f8 9cbd
000001d0: 6ed1 8d3c 2c33 633d c95a cfbd d07f 42bd
000001e0: 9a68 dabd 9499 d73d bda7 88bd aa1a 823d
000001f0: be8d bdbd 6a2f 4bbd 4fe4 e33c bfec b53d
0.031076329 0.030052733 -0.010680781 -0.06430684 -0.011355366 -0.07995569 0.05000839 0.081937
0.07679479 -0.0045652697 -0.044654388 -0.019024786 0.0020059086 0.06405746 -0.01004947 0.061222475
-0.034915283 0.0934757 -0.046625283 -0.00871851 0.008266133 0.06438248 -0.021985784 -0.03166681
0.0040442823 0.0046945964 0.0753752 -0.0064425804 -0.033690292 0.057975445 0.09819706 0.0155950235
0.0250027 0.08716666 0.06517303 0.07503731 -0.07331994 -0.0752453 -0.06538039 -0.046289224
0.07609553 -0.0866721 -0.002190072 0.036340103 -0.064208604 0.056570463 0.02223991 0.04099322
0.06357341 -0.089753985 0.038723182 0.04120034 0.09077714 0.08478724 0.027714655 -0.0046890685
-0.041558377 -0.041413873 -0.009786251 0.041688237 -0.032619324 0.10771489 -0.10231093 0.029724674
-0.07621102 0.014266079 0.10188709 -0.04838825 -0.016377915 0.050887335 -0.028202085 -0.09764089
-0.07863379 0.053505488 0.07277005 -0.0076870057 -0.052378383 0.06641774 -0.029612582 -0.10644725
0.03848624 -0.030147122 -0.023103746 0.10478507 0.070805915 -0.08328658 -0.088556305 -0.08640789
-0.05581123 0.08943247 -0.04603026 0.05387548 0.03854612 -0.069022 0.025455348 0.1057733
-0.055967104 -0.051560074 -0.0037783843 0.03184088 0.07765772 0.0711566 -0.08818081 0.08087077
0.016886676 -0.056728482 -0.10375299 -0.08579716 -0.03494623 0.02784739 -0.043044236 -0.088280715
0.08880191 0.035257805 -0.06827901 -0.076645784 0.017311778 0.055468723 -0.10124738 -0.047485173
-0.106644824 0.105273396 -0.066726185 0.06352742 -0.09255551 -0.049605764 0.027818827 0.08883046

weight f4 [1, 128]
00000000: 7a30 a13c 424d 793d 1f24 21bd de4d 18ba
00000010: 9e89 38bd 5d51 82bd ab8f 60bd da42 983d
00000020: 4336 083c 43f8 763d 9308 4abd 3813 253c
00000030: c3da d23a 8982 3cbd 4327 a43d fde0 e4ba
00000040: bdb3 4a3b 038a 9c3d bea7 45bd e8d2 393d
00000050: 9549 353d a320 b93c 9b13 a73d 8484 a0bc
00000060: 209f debb b73f 6e3c 0576 983d 4af2 be3a
00000070: 8d06 c83a aeaa 633d ffb4 8bbd 649a 4cbd
00000080: 702c a0bc f294 b33c d562 13bd e4ae 32bd
00000090: f23e 7a3d 2f3d 53bc 2ae0 393d 016d 63bd
000000a0: 9562 853c 370e 603d 084f e5bc fa99 9f3d
000000b0: dc2c 863c be5c 803d 5db2 3abc b05f 683d
000000c0: 9ffb afbd 37f5 82bc 0532 343d 483f 77bd
000000d0: a46c 91bb 9551 a73d efda 773d eb75 adbd
000000e0: 507d 37bd bd6f 0a3d db9a 243d 1ad8 71bd
000000f0: 3a98 783c de7a 013b cb95 51bd e553 543d
00000100: 54ee 8dbd ac01 5cbd eced 783d e91c b8b8
00000110: 77bd 853d 29f7 8dbd af49 4c3d 8202 61bb
00000120: 17e1 463d 8b09 953d d9e7 623d 43cf 82bd
00000130: 5f83 c5bc e31c 80bd ceaf a8bd 18f9 98bd
00000140: 74cf b83b 06a2 7dbd 10bb 9e3c 532a 64bd
00000150: 5723 823d 556d f93b 718d 87bd 03da 863a
00000160: f8a9 70bd 56ac ab3d 90f9 f03c 1e13 1dbd
00000170: d2d0 da3b 4f43 78bd 8bd8 673d c277 453d
00000180: bd95 9f3d a68d f7bb 30ef 8c3d 85d4 4e3d
00000190: c11e f9bc 781c 09bc 599a 4ebd f435 06bd
000001a0: 666e 2abd 3dbb 6e3c 10ed e2bc e0e9 91bd
000001b0: e024 75bd 320a 01bd f1d0 edbc 7510 a63d
000001c0: b556 6cbd c0ef 98bd cd4c e9bb 89b2 39bd
000001d0: 0e3b 913d b734 08bc f102 8a3c b149 803d
000001e0: 5987 50bd 2f0c bcbc 475e 703d f9d3 e4bc
000001f0: bfdf 043d ace3 813d c7d4 a13d b107 e7bc
0.019676436 0.060864694 -0.03934109 -0.0005809943 -0.045053117 -0.06363175 -0.054824512 0.07434626
0.008313718 0.060295355 -0.049324583 0.010075383 0.0016086925 -0.046022926 0.08015301 -0.0017462071
0.0030929886 0.07643511 -0.048255675 0.04536715 0.044259626 0.02259857 0.08158036 -0.019594438
-0.0067938715 0.014541558 0.074443854 0.0014568057 0.0015260741 0.055582695 -0.06821632 -0.049951926
-0.01955244 0.021921609 -0.035982925 -0.04362382 0.061095186 -0.012893005 0.045379795 -0.055523876
0.01628236 0.054701056 -0.027991787 0.077930406 0.016378812 0.06267689 -0.011395064 0.05673188
-0.08592915 -0.015986068 0.043993015 -0.060363084 -0.004438 0.081698574 0.060511526 -0.08469757
-0.04479724 0.03379797 0.040186744 -0.05904398 0.015173012 0.0019757072 -0.051168244 0.05183782
-0.06930223 -0.053712532 0.060773775 -8.779189e-05 0.06530278 -0.06931908 0.049874958 -0.003433377
0.048554506 0.07277211 0.05539689 -0.06387188 -0.024110494 -0.0625551 -0.08236657 -0.07469386
0.0056399647 -0.061922096 0.019376308 -0.055704426 0.06354397 0.0076119103 -0.06618775 0.0010288361
-0.058755845 0.0838248 0.029415876 -0.03834831 0.0066777254 -0.060611065 0.056602996 0.048209913
0.07792232 -0.0075547276 0.06881559 0.050495643 -0.030410172 -0.008368604 -0.050440166 -0.032766297
-0.04160919 0.014571008 -0.02770093 -0.07124686 -0.05984962 -0.031503864 -0.029030295 0.08108608
-0.057699878 -0.07467604 -0.007119751 -0.04533628 0.07091342 -0.008313349 0.016847106 0.062640555
-0.050910328 -0.022955028 0.05868366 -0.027933108 0.032439943 0.06342253 0.07901912 -0.02820191
