drl/model.pt (torch, 107586 bytes, 11 tensors)

weight f4 [2, 2, 3, 3]
00000000: 41ed eebd 8190 61be 1cd3 dbbd 65c1 08be
00000010: 3c27 48be 6c69 c6bd 3594 05be c8fa da3c
00000020: e3d8 693e 9c8b 48bd 9a76 a23d e715 043e
00000030: a868 1fbe 7792 56be 76d4 fd3d 640f 12bd
00000040: ce85 40be a2d4 34be 1e59 26be f15c 2e3e
00000050: 3b4e 6e3e a1ac 563e 06c2 b9bd 4c2c 07bd
00000060: 4a40 60be 5e00 c33d 2c3e 45be 045b 173d
00000070: 49d2 40be 448e a1bd 3766 113e 945e a2bd
00000080: 60b2 1dbc 349d 553d 28ce 93bc 9b8a 34be
-0.11666346 -0.2202778 -0.10733625 -0.13355024 -0.19546217 -0.096880764 -0.13044818 0.02673091
0.22836642 -0.048961267 0.07932778 0.1289898 -0.15567267 -0.2095431 0.12394039 -0.03565921
-0.18801042 -0.17659238 -0.16244933 0.17027642 0.2327203 0.2096429 -0.0907021 -0.03300123
-0.21899524 0.095215544 -0.19261998 0.036952034 -0.18830217 -0.07888463 0.14199148 -0.079281956
-0.009625047 0.052151874 -0.018042639 -0.17630999

bias f4 [2]
00000000: fa41 46be 253b 3e3e
-0.19361106 0.1857725

weight f4 [2, 2, 3, 3]
00000000: 8010 83bc 1ff5 3f3e 1a43 fd3d a649 12be
00000010: e4ab 093d 5a17 05be ce25 2abe 0f87 583e
00000020: d9d5 1cbe 30f2 cabd 2e99 0fbe c796 60be
00000030: 0ac6 cc3d 98ac 913c 7027 3fbe aacd aebd
00000040: a93f 0a3e e0fa 85bc 26bc ff3d ecea 5abd
00000050: 3817 c8bc 0fc5 4fbe 7045 4ebe 5e3d cb3d
00000060: e67e 10be 7b31 383e c220 c93d 13de 0f3e
00000070: 33d7 313e 0ea0 9fbd e941 0f3e b685 36be
00000080: 4193 5bbe 00fd e53b c72d 563e 94c3 d2bd
-0.015999079 0.1874585 0.12366314 -0.14285907 0.033611193 -0.12997189 -0.16615984 0.21145271
-0.15315951 -0.09909475 -0.14023277 -0.21932517 0.099987105 0.017782494 -0.18667388 -0.08535321
0.13500847 -0.016354978 0.12487058 -0.053446695 -0.024425134 -0.20290016 -0.20143676 0.09923814
-0.14110908 0.17987625 0.09820701 0.14049558 0.17367248 -0.077942 0.13989986 -0.17824444
-0.21442892 0.0070186853 0.209159 -0.1029121

bias f4 [2]
00000000: 445c 99bd 2634 f03d
-0.074883014 0.117286965

weight f4 [128, 84]
00000000: d235 c8bd 077e ae3d f548 c5bd 7074 61bd
00000010: 6db8 9a3d 22fc 9ebd c71a 9f3d c77f ce3d
00000020: ba66 1f3d 07d0 b63d abb8 823d 27c9 a4bd
00000030: 0509 de3d 1e09 073d 10b0 ffbc 458a da3d
00000040: 0002 3d39 94bf a43c 6053 21bc 637a bc3d
00000050: 6374 a7bd 6ae3 633d 130f 93bd b112 ba3d
00000060: 0732 923d 3b32 9c3d e356 bf3d 46ff 603d
00000070: 800a 48ba 8925 c03d 02b1 443d 8b21 9c3d
00000080: 6fc0 c13d 0e5d dfbd bd5c 68bd 4063 553c
00000090: 2cbd 2cbd e013 b2bc 002c a1bb 5d95 a03d
000000a0: 5043 f13b f320 a8bd 61ea 9b3d bd0b 68bd
000000b0: 801d 413b 78a3 b2bd 804d 72ba 6900 c33d
000000c0: 6156 de3d 551e 913d 488b 573c a6bf 91bd
000000d0: fd07 6cbd daed 653d 1c62 76bd 5014 e6bc
000000e0: 6066 1fbc d64a 7a3d c87a 93bc c827 25bc
000000f0: 3ada 263d 8c11 aabc aad0 aebd fc12 a23c
00000100: 365f 8abd 4ae7 3e3d dbe9 a43d c400 a33c
00000110: 2083 fabc d795 9c3d dd8d 4ebd 8612 6c3d
00000120: 8354 a03d a581 c23d 8852 583c 7f61 c03d
00000130: 6cf6 de3c 9993 cabd 5250 c8bd 96c9 283d
00000140: 98cd 6ebd 76d0 91bd 9c1f 52bd 8883 59bc
00000150: 4be7 5bbd 293c d5bd ddf2 db3d dfe1 a5bd
00000160: 4bea c93d 16a2 023d b6ad 253d 00b9 31bd
00000170: ccec d9bc 9772 b53d fac7 7d3d fe81 82bd
00000180: 29c9 8f3d 200d e8bc 4eab 2b3d 1bbd aabd
00000190: b961 6abd a38a 6fbd 922f 533d c0ea bcbb
000001a0: 8820 04bc f7d3 d13d 8d23 a03d ede9 933d
000001b0: 64d9 abbd 1027 333c 847d 8cbd e301 843d
000001c0: 96b0 4d3d 7cae b83c e5ba 8e3d 8ee9 793d
000001d0: 0071 82bd 0687 8ebd 1c79 d93c 3ac5 183d
000001e0: 3af0 123d 30e2 c13b 1496 afbc 9620 8bbd
000001f0: 0058 07ba 3176 d03d 6633 1fbd e4ba eb3c
00000200: 1c31 a0bd 926b 3b3d 66e3 2b3d 585b 72bd
00000210: 0cf7 1abd 1c4d c2bc 4766 aa3d 176d b4bd
00000220: b8e3 09bd 2091 3bbb 6ee5 cdbd 9d5d b5bd
00000230: cfcd 9c3d 6e93 a4bd 4801 3dbc ca56 cdbd
00000240: f217 27bd c6d3 2b3d 8552 8b3d 700d 35bd
00000250: 2eaa 1b3d 3121 aa3d d2ec 10bd 3ed1 51bd
00000260: 5f83 d03d 6058 3b3b a46f 76bd df23 debd
00000270: 418e d73d d089 9ebd 0068 dbb9 6d3a b53d
00000280: 54c9 ae3c 4eb3 793d 644e a23c 16fe 7d3d
00000290: 4290 5a3d 3f3c 88bd 632a ab3d c953 50bd
000002a0: 849f ddbd 567d a0bd 6ea8 d6bd 3010 92bc
000002b0: 44cd f9bc 1be8 863d d033 32bd 11b1 803d
000002c0: 2d8f 63bd dff4 d93d dbe3 c33d 8074 8c3b
000002d0: 9aaa 303d 2b39 be3d bc9c adbc 5a46 093d
000002e0: 8a87 a6bd d76e d43d 94aa 94bd 3b3b bd3d
000002f0: 0000 2ebc 9a70 793d f17d bb3d 5f95 a23d
00000300: f0bd 853b 72e9 1bbd 928b c6bd 5d08 bd3d
00000310: 4bf0 b73d 0f4e 943d 74f0 a03c 201d bfbd
00000320: 6066 53bc 98fb 033c 20bc c4bd dea5 783d
00000330: 87c4 b0bd f2b5 a1bd 62ce 603d 0f57 a7bd
00000340: af8d 65bd 78be 92bd 8e67 88bd f02a 723c
00000350: cd9b 853d 2d27 92bd d0e0 873b f2fe 87bd
00000360: 27cc 833d a281 03bd 48ea 5c3c 958f c8bd
00000370: e948 ad3d 4823 f1bc 241d 8d3c 6076 46bb
00000380: 61ae bdbd a04e 3a3b 6dad c83d d087 ebbc
00000390: cc71 c7bd 96a0 c0bd e66e 253d 7ebf 54bd
000003a0: 3cdc 84bd c06b b4bc d2b6 9cbd 344b b0bc
000003b0: ecbe b23c d5e8 a63d 200b 93bc f076 b9bd
000003c0: 4811 763c 2094 8ebb 5217 5abd 6cff cb3c
000003d0: d4fd 803c 7ec1 463d 1ca1 d43c a0f6 b63b
000003e0: 8420 fd3c f872 0ebd 8a04 4b3d f25f 0e3d
000003f0: 006d 33bd 15e0 c73d e2b3 083d 22fd 533d
-0.097758904 0.085201316 -0.09633056 -0.055042684 0.07554708 -0.07762934 0.07768779 0.10082965
0.038916327 0.08926397 0.06382879 -0.08046179 0.10841564 0.03296768 -0.031211883 0.10670904
0.0001802519 0.020110883 -0.009846538 0.09203031 -0.08176496 0.0556368 -0.071806096 0.09085596
0.07138448 0.07626768 0.09342744 0.054930948 -0.0007630959 0.09382159 0.04802037 0.07623585
0.09460532 -0.10906421 -0.056729067 0.013024151 -0.042172596 -0.021737993 -0.0049185753 0.07840989
0.0073627606 -0.082094096 0.076130636 -0.05665182 0.0029467046 -0.087225854 -0.0009243116 0.095215626
0.10856319 0.070858635 0.013155766 -0.07116632 -0.057624806 0.056135036 -0.06015216 -0.028085858
-0.009728998 0.061106525 -0.018002883 -0.010080285 0.04073546 -0.02076032 -0.08535893 0.019784443
-0.06756441 0.046607293 0.08052417 0.019897826 -0.030580103 0.07645767 -0.05042826 0.057634853
0.07828619 0.09497384 0.013203271 0.09393596 0.027217112 -0.09891433 -0.09780945 0.041207872
-0.05830154 -0.07119839 -0.051299676 -0.013275988 -0.053687375 -0.10411865 0.10739682 -0.08099722
0.09859141 0.03189286 0.040448867 -0.04338932 -0.026602171 0.08859747 0.06195829 -0.0637245
0.0702079 -0.028326571 0.041911416 -0.0833685 -0.0572221 -0.058481824 0.05155904 -0.005765289
-0.008064397 0.10245507 0.07819281 0.07222352 -0.08391073 0.010934606 -0.06859878 0.06445672
0.050217234 0.022544138 0.06969241 0.06101375 -0.06369209 -0.069593474 0.026547007 0.037297465
0.03587363 0.005916856 -0.021433868 -0.06793325 -0.00051629543 0.10178793 -0.038867377 0.02877564
-0.07821867 0.045756884 0.04196491 -0.059169143 -0.03783326 -0.02371841 0.08320289 -0.0880987
-0.033664435 -0.0028620437 -0.10053526 -0.08855746 0.076564424 -0.080359325 -0.01153595 -0.10026319
-0.04079432 0.04195001 0.06802849 -0.044202268 0.038004093 0.08307112 -0.0353821 -0.05122494
0.10181307 0.002858661 -0.060165063 -0.108466856 0.1052518 -0.077411294 -0.0004184842 0.088490345
0.021336235 0.060962014 0.01981277 0.062009893 0.05336023 -0.06652116 0.08357694 -0.050861154
-0.10821441 -0.07836406 -0.10481344 -0.017829984 -0.030493386 0.06587239 -0.043506444 0.06283773
-0.055556465 0.106424086 0.09564944 0.004286349 0.04313145 0.09288248 -0.0211929 0.033514358
-0.08131321 0.103727035 -0.07259098 0.09239813 -0.010620117 0.0608984 0.09154881 0.079386465
0.00408148 -0.038064428 -0.0969459 0.09230111 0.08981379 0.07241451 0.019645907 -0.09331727
-0.012902826 0.00805559 -0.096061945 0.06070506 -0.086312346 -0.078960314 0.054884322 -0.08170902
-0.056043323 -0.07165235 -0.066603765 0.014780745 0.06523857 -0.071363784 0.004146673 -0.06640424
0.06435423 -0.03210605 0.013483591 -0.09793011 0.08461172 -0.029435769 0.01722581 -0.003028296
-0.09261776 0.0028428212 0.09798703 -0.028751284 -0.09738502 -0.09405629 0.040388964 -0.051940434
-0.06487319 -0.022024035 -0.07652058 -0.021520235 0.021819554 0.08149878 -0.01794964 -0.09055889
0.015018769 -0.004351154 -0.053244896 0.024902068 0.015746035 0.048524372 0.02595573 0.005583599
0.030899294 -0.03477761 0.049564876 0.03475947 -0.043805122 0.09759537 0.033374675 0.051755078

bias f4 [128]
00000000: d124 aa3d 1261 3a3d 0e6a d7bd 8466 f93c
00000010: 801c 753c adcd cfbd 54b7 45bd ff87 5cbd
00000020: 004e 2ab9 a44f fd3c 8229 6a3d c04e 8fbd
00000030: 3068 5f3c 90ff 873b 8697 4a3d 2ba0 a03d
00000040: 7896 23bd 66be 6e3d 76e8 43bd 2090 5bbc
00000050: 6fbf bb3d 4921 a1bd 1c9b 913c 81da a23d
00000060: c59e 973d f720 983d 7e48 5f3d 0035 1e3b
00000070: 9ce3 8abc 9191 893d 38e9 2fbd c23c 663d
00000080: ab5a c53d 51cc c23d f064 13bc f02f d2bb
00000090: 8a9b 65bd fd47 a0bd 20be 033c 33b3 bfbd
000000a0: d29a 3f3d 48b5 2cbd d527 9c3d 4c37 adbd
000000b0: a665 37bd b30b 6cbd c0d9 913b 16b3 543d
000000c0: 8243 1ebd 60fb 85bd 5123 823d 567d 04bd
000000d0: 0031 b33b 8070 b7ba 5869 5abd 907d b7bb
000000e0: de96 2d3d 3461 bc3c 8e55 32bd 9a69 cebd
000000f0: fc89 48bd 439e b53d 3751 c13d f696 0ebd
00000100: 1890 debd 8fa3 aa3d 02e8 06bd ee83 053d
00000110: e578 5dbd d380 bb3d b752 de3d 8401 d73c
00000120: 8d80 aabd 82c3 6c3d 63f3 de3d c408 dfbd
00000130: ed6b c63d 563b 71bd 9aa9 39bd 2e68 abbd
00000140: ba83 b6bd 6690 1e3d d74d b8bd 0cf4 cf3c
00000150: 32b1 2abd fe9b 98bd 6b5e 56bd ca93 2dbd
00000160: ae13 bbbd 4c5a a9bd e2b1 98bd e968 df3d
00000170: dca8 7dbd 209e 68bc a0b5 5a3c 4a75 d6bd
00000180: e298 89bd 0997 bfbd b61d 1b3d e3a3 8ebd
00000190: 044a 78bd 4c19 b5bc c8b7 3f3c 731d af3d
000001a0: f48c ab3c df60 a2bd 9ecc 503d c975 cd3d
000001b0: 06a1 d5bd ca83 3c3d d6d7 b7bd edc1 8d3d
000001c0: 860a 60bd a129 8c3d fc1e d9bc 1768 94bd
000001d0: c193 883d 5ce5 44bd c083 08bc 5ec8 86bd
000001e0: ecc0 59bd 7526 853d ddeb d83d 7b99 4bbd
000001f0: cef6 02bd 78ae 0ebc 5c00 da3c 943e e2bc
0.083078034 0.04550273 -0.10518275 0.030444391 0.014960408 -0.101466514 -0.04827054 -0.053840633
-0.0001624152 0.030921765 0.05716849 -0.06997442 0.01363568 0.0041503385 0.04946091 0.078430496
-0.03993842 0.058287047 -0.047829114 -0.013401061 0.091673724 -0.07867677 0.017774157 0.079518326
0.0740333 0.074281625 0.054512493 0.0024140477 -0.016954236 0.06717218 -0.042947024 0.056210287
0.09636434 0.095116265 -0.008996233 -0.006414406 -0.056056537 -0.07826231 0.008040935 -0.093603514
0.046778508 -0.04216507 0.07624785 -0.08457813 -0.044774674 -0.057628345 0.0044510067 0.051928602
-0.0386386 -0.065420866 0.06354392 -0.032346092 0.0054684877 -0.001399532 -0.05332312 -0.005599685
0.042380206 0.022995569 -0.043538623 -0.10078736 -0.048959717 0.08868077 0.094393186 -0.034811936
-0.108673275 0.083319776 -0.032936104 0.03259652 -0.054070372 0.09155431 0.1085562 0.02624584
-0.083253 0.05780364 0.10886266 -0.10890344 0.09688554 -0.058894478 -0.04532776 -0.0836948
-0.089118436 0.038711928 -0.08999222 0.025384925 -0.041672893 -0.07451628 -0.052336138 -0.04237727
-0.09134613 -0.08269176 -0.074558035 0.10908682 -0.061928615 -0.014197856 0.013348967 -0.1047159
-0.06718613 -0.093549795 0.03787013 -0.06964853 -0.06061746 -0.022106789 0.011701532 0.08550539
0.020941235 -0.07928633 0.05097639 0.10032231 -0.104311034 0.04602412 -0.08976714 0.06921754
-0.054697536 0.068438776 -0.026504032 -0.07246416 0.06668807 -0.048070297 -0.008332193 -0.06581186
-0.0531625 0.06501476 0.10591862 -0.049706917 -0.031973653 -0.008708589 0.0266115 -0.02761773

weight f4 [7, 128]
00000000: d4f7 4abd 32f8 0b3d dea0 8dbd 449c 8bbc
00000010: 49d2 42bd a6fa 3c3d 954c 8fbd 5c2e 11bd
00000020: 00b6 32b9 082e 56bd da7c 3e3d 7e2a 383d
00000030: 10de 893b 6819 18bc 0484 89bc 0622 603d
00000040: a098 82bc 99ab 99bd c01b ba3a f70d 813d
00000050: 7ca0 a5bc f129 aabd ac5c b5bc 8b88 973d
00000060: 400e 33bd f067 7cbc 2df6 8abd c3b4 a13d
00000070: ac8b 98bd 6d62 a5bd 85a6 53bd 0878 093c
00000080: e226 9bbd 683b 6a3c 19c9 5abd fd21 8e3d
00000090: e478 943c c331 913d 4811 62bc be7d 663d
000000a0: d359 a93d 8463 04bd 3065 1abc 9a36 483d
000000b0: 5192 8c3d a666 0b3d 602a 0abb 2db3 56bd
000000c0: 562c 6b3d 31d3 abbd 16ea 7abd f8cb 233c
000000d0: b536 92bd 4208 563d 58d6 0d3d 0a15 3a3d
000000e0: ea34 d8bc e857 69bc ee00 6fbd 0ca0 9b3c
000000f0: eb2f 8a3d dc7e 94bd 9568 803d aa03 743d
00000100: 20ed 7a3b 4ad5 713d e713 803d 012f 2ebd
00000110: b015 523c 5e43 7f3d 161f f1bc 883c 793c
00000120: 2284 793d a05a 703c d2c0 7a3d d99a a43d
00000130: 4073 f73c 002c f7bc 8a47 253d c2c3 403d
00000140: 1e4d 5e3d e08c 4fbd 5076 08bd c170 83bd
00000150: a021 383c b40d acbd 8028 683b 382e 223c
00000160: 602f 16bb 3a5b 1cbd 358b 79bd bb6c 95bd
00000170: 6626 6e3d e4cb c9bc 9bd1 1fbd 2076 08bc
00000180: d09c 83bc a727 8bbd 4e48 2d3d 1031 aa3b
00000190: 80e5 c5bc 9cd0 a2bc 70aa 9fbd a046 c6bb
000001a0: d654 1b3d 85db b33d a868 65bc f637 213d
000001b0: 2d59 a43d 6d74 2bbd 0816 783c f23a 493d
000001c0: f90c 00bd 4a15 093d c06a 1ebc 98fc 0d3c
000001d0: b4e8 883c c425 a4bc c89e 003c f23a 22bd
000001e0: 00d6 c23b 6048 82bb 6cd3 acbd 40ad deba
000001f0: b356 8ebd d182 afbd 3a9c 94bd ce04 83bd
00000200: eb98 77bd 52cf 5ebd feed 4c3d 45eb b23d
00000210: 0bd1 adbd 6fbc ad3d 18f5 90bd 8c0a 033d
00000220: 90ec e83b 1e0f 5d3d 895e a53d 1704 883d
00000230: b027 193c d03e 8dbd 1e27 a5bd 2061 8bbd
00000240: 1cb7 ee3c 479c abbd 60b8 823b d2e0 adbd
00000250: a9c9 a43d 1a00 593d 101a 1a3c ca88 2e3d
00000260: 20e2 0a3c e0f2 31bc 24bb c53c 6644 5c3d
00000270: e03d 0e3b 1098 02bd 682f 79bc 4e5b 88bd
00000280: 5c22 a83c 2ee3 503d 6c3b ee3c e0cc cf3c
00000290: 5a71 a5bd 8250 81bd 9a09 473d 8ebe 76bd
000002a0: dd98 a13d bc7d b43c acf6 8fbd 18c4 133c
000002b0: 48a7 62bc e8fd b0bd 303b fdbb 529d 283d
000002c0: 4a49 88bd 5373 20bd ed4c 853d 711c 8a3d
000002d0: 0024 39b9 6c6e a73c acc9 cf3c 41e8 923d
000002e0: 0081 06bc 74b9 9ebc 5ed4 acbd e0ef 9b3b
000002f0: c96d 9a3d 7539 aa3d 5449 9dbc 593d a1bd
00000300: 9d0e ad3d 54fd cebc d2d4 73bd 9a07 3a3d
00000310: d001 70bd 6c0c abbd 9cdf 7dbd fec8 033d
00000320: bb7a a53d 17e0 a23d b8ec dcbc 5a86 533d
00000330: b00c d7bb 0672 6b3d dacb 4c3d c0dc fbbb
00000340: e0ab 0b3b 61f6 51bd 30f1 c7bb a47a a83c
00000350: e8b0 acbc 4a8c 483d 48b1 b7bc 09ea 9b3d
00000360: 6106 3fbd 2cf5 e3bc e25a 3cbd 150a 93bd
00000370: 97c7 893d 5f07 9e3d 86fb 463d 0a86 97bd
00000380: 10b7 163c c602 323d 7cf2 bcbc a05a 6dbd
00000390: 7d42 48bd 0dda 853d d8d2 fabc b8f9 46bc
000003a0: c38a b43d 749d 7abd daa0 71bd 9863 103c
000003b0: c55a 913d c204 1d3d 1640 5d3d a823 803c
000003c0: 1e49 493d 507d 5dbd 059b 0bbd 22dd 603d
000003d0: 3889 e13c 9046 b9bc c59f 3cbd 0efe a5bd
000003e0: cab6 553d 3224 313d a188 a03d 4083 cdba
000003f0: 3868 e5bc 5947 2bbd a310 1ebd 589c c83c
-0.049552754 0.034172244 -0.069154486 -0.017042287 -0.047563825 0.046137474 -0.06997029 -0.035444602
-0.00017043203 -0.052289993 0.046505786 0.0449624 0.00420738 -0.009283401 -0.016786583 0.054719947
-0.015941918 -0.07503433 0.0014198944 0.06301492 -0.020218126 -0.08308781 -0.022138916 0.073990904
-0.04371476 -0.01540564 -0.067852356 0.07895806 -0.07448515 -0.08075414 -0.051672477 0.008390434
-0.07575776 0.01429639 -0.053414438 0.069400765 0.018124051 0.070895694 -0.0137980655 0.05627226
0.08269086 -0.032321468 -0.009423539 0.048880197 0.06863845 0.03403344 -0.0021082386 -0.05241697
0.05741533 -0.08389891 -0.061258398 0.00999736 -0.07139341 0.05225397 0.034628242 0.04543022
-0.026392419 -0.01424215 -0.058350496 0.018997215 0.06747421 -0.07250759 0.062699474 0.059573807
0.003828831 0.0590413 0.06253796 -0.042525295 0.0128225535 0.062320106 -0.029433768 0.015212186
0.060917027 0.014670044 0.061219044 0.08037347 0.030206323 -0.030172348 0.040351428 0.04706169
0.054272763 -0.05067146 -0.033315957 -0.064179905 0.011238486 -0.08401051 0.003542453 0.009898715
-0.0022916421 -0.038172938 -0.060923774 -0.07296129 0.05814209 -0.024633355 -0.039018255 -0.008328944
-0.016065985 -0.067946725 0.042305283 0.005193837 -0.024157286 -0.019874863 -0.0779618 -0.0060508996
0.037922703 0.087821044 -0.014002003 0.03936001 0.080248214 -0.04185908 0.015141971 0.04912848
-0.03126237 0.03346757 -0.009669006 0.00866618 0.016712524 -0.02003754 0.007850356 -0.039606996
0.005945921 -0.003975913 -0.08438763 -0.0016988888 -0.0695013 -0.08569873 -0.0725636 -0.06397401
-0.06044857 -0.054396935 0.050031655 0.0873628 -0.084871374 0.084832065 -0.07077998 0.03199248
0.0071082786 0.053969495 0.08074672 0.06641405 0.009347841 -0.06896746 -0.08064102 -0.068056345
0.029140048 -0.08379417 0.0039892644 -0.08490147 0.08046276 0.052978612 0.009405628 0.04261092
0.008476764 -0.010861129 0.024137087 0.053776167 0.002170436 -0.0318833 -0.015209056 -0.0665804
0.020524196 0.050997905 0.029081069 0.025366247 -0.08078261 -0.06314184 0.04859314 -0.06024032
0.078904845 0.022032611 -0.07029471 0.00901892 -0.013833828 -0.08642179 -0.007728003 0.041165657
-0.06654604 -0.03917248 0.06508813 0.06743706 -0.00017656386 0.020438395 0.02536472 0.07173205
-0.008209467 -0.01937554 -0.08438943 0.00475882 0.07540471 0.0831174 -0.019200005 -0.07873029
0.08450053 -0.02526728 -0.059529133 0.045417406 -0.05859548 -0.08351979 -0.06198083 0.032174103
0.080800496 0.07952898 -0.026968345 0.0516418 -0.0065627918 0.057481788 0.049999095 -0.0076862276
0.0021312162 -0.051260356 -0.00610175 0.020566292 -0.02108045 0.048961915 -0.022423401 0.07612998
-0.046636943 -0.027826868 -0.04598511 -0.07179657 0.06727522 0.0771625 0.048579715 -0.07398613
0.009198919 0.043459676 -0.023064844 -0.057947755 -0.048891533 0.065357305 -0.030618116 -0.0121444985
0.08815529 -0.061185315 -0.05899129 0.0088128075 0.07097391 0.038334616 0.054016195 0.015642002
0.049141996 -0.054074585 -0.034083385 0.05489839 0.027531251 -0.022616655 -0.046050806 -0.08105098
0.052176274 0.04324741 0.0783856 -0.0015679374 -0.028003797 -0.04181609 -0.038590085 0.024488613

bias f4 [7]
00000000: 205b f03b ed91 883d 42aa 0f3d 70f8 27bc
00000010: d841 1abc 06d8 313d 12fd 87bd
0.0073350817 0.06668458 0.03507448 -0.010252103 -0.009415112 0.043418907 -0.06640066

weight f4 [128, 84]
00000000: 3e50 313d 5092 aebc 7e9e babd 5441 b7bc
00000010: 4c4f 55bd 6cee ecbc 26d2 2f3d 8f42 ce3d
00000020: 803b 1bbd c26e 243d d0ce 8abb 493a a33d
00000030: cb50 d0bd 2012 f7bc cb71 a93d f018 cabd
00000040: e6b7 5e3d 7186 b5bd 3d5c cb3d 9613 b8bd
00000050: 84b6 a5bd f463 9abd c09d 81bc f2bd 423d
00000060: a883 c8bd befe 783d b47e a6bd 1828 bcbd
00000070: 8498 9e3c aa24 5d3d ff57 ad3d 644e e93c
00000080: cd3d 58bd 389b bcbc d8fa 33bd 00f2 9bb9
00000090: 58eb 0abc db05 a33d ee56 afbd 2994 d33d
000000a0: b650 8abd 266c 263d c460 d5bc 373b 863d
000000b0: c1e5 67bd 5845 213c 66d9 3d3d cc68 e3bc
000000c0: d42a 6ebd 8e4d 04bd 18d6 27bd 9475 ac3c
000000d0: a478 3abd 803e 4a3c 28f7 2bbd 32b3 b4bd
000000e0: 1888 663c 8012 db3a ff5a aa3d 4474 3dbd
000000f0: 1afc 7c3d 2a4f 90bd 67f5 9b3d 812e b8bd
00000100: 6c0a 43bd 348f d03c 2622 56bd c4a1 ea3c
00000110: da56 0c3d c1e3 a0bd 1898 d3bc 0a14 c0bd
00000120: cee0 5a3d a971 bd3d bdc8 bebd 71bb db3d
00000130: 604e bfbc b188 ca3d a4b7 b63c 6009 2ebc
00000140: dae3 563d 47ee adbd 88b2 9ebd 1475 bdbc
00000150: 4f49 c4bd adc6 55bd 7ce6 fc3c d0e7 11bc
00000160: 5401 9fbc d7d7 963d edcb b9bd 40a3 04bc
00000170: 45e3 9f3d 314a 40bd 61b5 c63d c5cc 85bd
00000180: 1a57 7e3d d194 803d 1401 ae3c c4ca f73c
00000190: 6862 02bc da27 cabd b0a3 97bd 9e93 183d
000001a0: 00b2 6fbb 0060 8cb9 3c28 debd 4cb3 a4bd
000001b0: 9438 fe3c ab6e d4bd 101c 183c c069 483c
000001c0: aac9 3fbd 4c8b d3bd 8349 b83d 0560 93bd
000001d0: 8f18 953d ee37 6b3d 1c18 f03c c83c a1bd
000001e0: 911e d0bd aa69 0ebd d77f c93d 142a dcbc
000001f0: a359 d0bd 9806 253c 1080 4a3c f421 30bd
00000200: f88f 99bd a863 053c 1953 983d 3ac5 673d
00000210: 22a8 b6bd 009b 9aba 877f dd3d fa22 483d
00000220: d52f d63d 60c7 d3bd 2e23 c4bd 1791 963d
00000230: 19ad d93d 90f3 753c a453 bb3c 384a eabc
00000240: 0139 8c3d 1f9a ad3d e14a ddbd c77b 87bd
00000250: 6674 0dbd 9ad5 20bd 0049 b3b9 2c54 f13c
00000260: 1d53 b83d 9115 9f3d 7ed1 bdbd b82b 79bc
00000270: a3e9 a73d 1c39 b3bc 05cd a4bd 7080 b2bc
00000280: e306 953d d4e3 82bc a118 bf3d 503c c9bd
00000290: 8922 66bd 32b1 243d 8b80 a33d b2ba b6bd
000002a0: 8037 b03b 60b2 94bd 9e42 8abd c121 b13d
000002b0: 1621 1f3d 64e0 db3c 05e0 cc3d c0c0 9dba
000002c0: ba72 703d e56d dd3d 83c6 cabd 3f0b a13d
000002d0: e794 c1bd 14e4 b43c 6075 c93b 6e1e 473d
000002e0: e017 2b3b 7ea9 02bd 5e92 14bd b62a 2f3d
000002f0: 1662 52bd c005 87ba be07 3cbd 80ff bfbb
00000300: e4d3 853c 7439 fd3c cc39 8a3c 9869 6abc
00000310: ebd7 8b3d fc65 85bc d93e cabd c6ab 46bd
00000320: 5c9a f7bc 26b1 a0bd 743c 60bd ee56 b5bd
00000330: e802 93bd 94ab 92bc 8ea6 bcbd 4060 a3bd
00000340: b7b7 a43d e9e0 853d 3a68 5d3d 1738 a3bd
00000350: 6cd1 a1bd 3f51 8a3d b84b ddbd 6470 c33c
00000360: 7ab9 1abd be1e 323d a405 84bd a60f dcbd
00000370: 6ccf 993c 354f c73d 0028 fcbb 6444 963c
00000380: ce57 babd 5855 793c 8938 95bd 2049 323b
00000390: fee3 89bd bf74 d8bd 5c45 3abd e0ef 21bd
000003a0: d8a3 d7bd 66b3 583d 6efc 713d e59b dcbd
000003b0: e003 ccbd 7746 8e3d ed96 d13d 0039 d63b
000003c0: 2095 103c 1e44 65bd 49e0 8c3d 9d1b 8a3d
000003d0: 35ca b0bd f4d2 b53c 6ed7 acbd e004 16bd
000003e0: e394 b53d 880c 03bd 445c f93c 5b66 a13d
000003f0: ca53 683d cbfb afbd 8fdf 8c3d 4360 8c3d
0.043289416 -0.021310002 -0.09112261 -0.022370018 -0.052077577 -0.028922282 0.042925023 0.10071289
-0.03789854 0.04014469 -0.0042360798 0.079701014 -0.1017166 -0.03016001 0.082736574 -0.09868038
0.054374598 -0.08863533 0.099297024 -0.08988111 -0.08091453 -0.07538596 -0.015822291 0.047544427
-0.097907364 0.060789816 -0.081296355 -0.09187335 0.019359834 0.053990044 0.084640495 0.028479762
-0.052793313 -0.023023233 -0.043940395 -0.00029744208 -0.008478962 0.07960101 -0.085615024 0.10330994
-0.06753676 0.040630482 -0.026047118 0.06554263 -0.056615595 0.009843193 0.046349905 -0.027759932
-0.058146313 -0.032300524 -0.04097566 0.02105216 -0.045525208 0.012344003 -0.041983753 -0.08823241
0.014070533 0.0016713887 0.083181374 -0.046253458 0.06176386 -0.07046349 0.07615166 -0.08993245
-0.04761736 0.02545891 -0.05227866 0.028641589 0.034262516 -0.078559406 -0.02582936 -0.09378822
0.053437047 0.092501946 -0.093156315 0.10729111 -0.023352802 0.09889353 0.022304364 -0.010622352
0.05246339 -0.084927134 -0.07748896 -0.023127116 -0.09584295 -0.052191425 0.030871622 -0.008905366
-0.019409813 0.07365387 -0.09072099 -0.008095562 0.0780702 -0.046945754 0.09702564 -0.06533197
0.062094785 0.062783845 0.021240748 0.030248053 -0.007958032 -0.09870882 -0.07404268 0.037250154
-0.0036574602 -0.00026774406 -0.10847518 -0.08042011 0.031032838 -0.10372671 0.009284034 0.012232244
-0.04682318 -0.10329303 0.08998396 -0.07196049 0.07280075 0.057426386 0.029308371 -0.07872921
-0.1016208 -0.034768738 0.09838837 -0.026875533 -0.10173347 0.010072373 0.012359634 -0.04300113
-0.07498163 0.008141436 0.074377246 0.056584574 -0.089187875 -0.0011795461 0.108153395 0.04886148
0.10458342 -0.10340762 -0.095770225 0.073518924 0.10628719 0.015011683 0.022867031 -0.028599843
0.0684681 0.08476662 -0.10805298 -0.066154055 -0.034534834 -0.039266206 -0.0003419593 0.029459082
0.090002276 0.07767785 -0.09268473 -0.015208177 0.081988595 -0.021877818 -0.08046917 -0.02178976
0.07276704 -0.015977778 0.093308695 -0.09825957 -0.05618528 0.04020805 0.07983502 -0.08922328
0.00537771 -0.07260585 -0.067509875 0.08649016 0.038849913 0.026840396 0.10003666 -0.0012035593
0.05870316 0.10811976 -0.09901144 0.07863473 -0.09452229 0.022081412 0.0061480254 0.048613004
0.002610676 -0.03189992 -0.0362724 0.04276534 -0.051363073 -0.0010301396 -0.04590582 -0.0058593154
0.016336389 0.030911185 0.016873263 -0.014307402 0.068282925 -0.016283982 -0.098752685 -0.04850366
-0.030224971 -0.078462884 -0.054745153 -0.08854471 -0.07178289 -0.01790408 -0.09211455 -0.079773426
0.08042853 0.06537039 0.054054476 -0.07969683 -0.07901272 0.06753778 -0.10805458 0.023857303
-0.03777454 0.04348635 -0.06446388 -0.10745172 0.018775664 0.097319044 -0.007695198 0.018343158
-0.09098779 0.015218101 -0.07286174 0.002720423 -0.06732939 -0.105691426 -0.045476303 -0.039535403
-0.105292976 0.052905463 0.059078626 -0.10771922 -0.099616766 0.06947034 0.10233865 0.0065375566
0.008824617 -0.055973165 0.068787165 0.06743548 -0.08632318 0.022195317 -0.084395275 -0.036625743
0.088662885 -0.031994373 0.030439503 0.07880851 0.056720532 -0.085929476 0.06878578 0.06854298

bias f4 [128]
00000000: 23a4 a43d 1943 aa3d b69c 97bd 880f 613c
00000010: f773 c23d 6f7f 68bd bedd 103d 1675 7a3d
00000020: 00e2 033b 36f0 05bd 50e9 a9bc 1872 123c
00000030: 26af b9bd d0c9 b1bb 8a30 98bd 44e7 28bd
00000040: 71e2 56bd e588 d23d 778b c9bd 7600 5b3d
00000050: 1ed0 333d de08 2a3d 5c78 1dbd 089b 22bc
00000060: d014 eabc 0c3e ad3c 6b0c d1bd 7680 283d
00000070: eac2 583d 4252 12bd f490 ad3c aa80 63bd
00000080: 8cb5 c9bd 5ef8 723d a849 70bc eb39 7ebd
00000090: 4c85 28bd 4d71 8a3d c0d7 feba 1a78 15bd
000000a0: 06f3 cbbd a852 fdbc 2090 64bc 3574 973d
000000b0: 9826 7c3c 3e2f 183d 707d d3bc c869 0abc
000000c0: 8270 1dbd ff40 ce3d 970a ae3d 1724 ddbd
000000d0: 5654 063d 112e 41bd 00a5 703c c0c6 6ebb
000000e0: ceef 4c3d 079c 903d bf35 a0bd 72b9 3ebd
000000f0: 2434 8fbd b643 153d efd8 b53d b913 98bd
00000100: ae81 a4bd a11a a63d e485 ae3c 3ee4 18bd
00000110: 2044 483c aa73 b0bd d855 9bbc c908 813d
00000120: 1d2d c9bd f991 da3d 2845 dbbd a04f 6a3c
00000130: 2b0a 883d 9254 373d d9e6 903d 9b2d 7dbd
00000140: 288d 38bc 3a4c b7bd 9a2c 6c3d 2cbf 8bbd
00000150: 002d 30bd 68df 793c b569 42bd f6b5 313d
00000160: 44d2 fc3c 5353 bc3d f4e0 d4bd c004 2ebc
00000170: 4af0 3ebd ba11 99bd 619c 52bd 03a9 993d
00000180: 8486 18bd d04f babd 3ce5 cbbc 4e35 b6bd
00000190: 8aa5 b7bd 9a19 96bd 4b86 c53d 29c3 d33d
000001a0: 4ca4 8abd 4673 533d 3e2f d2bd 66bb 3a3d
000001b0: 7396 d3bd a1bd 903d a2e3 003d fec4 a5bd
000001c0: 7a94 2c3d eda3 59bd 4e71 303d 80df 3ebc
000001d0: 866f 3abd 79ef a4bd 00f1 55ba 906d c4bb
000001e0: bd71 d73d 9b2e ab3d 4132 c13d 3fad a63d
000001f0: 04c7 953c 2c7a d73c baa5 b6bd 8654 093d
0.08039119 0.08313579 -0.07402937 0.013736613 0.09494775 -0.056762155 0.03536772 0.061146818
0.002012372 -0.032699786 -0.020741135 0.008938335 -0.0906661 -0.0054256693 -0.07431133 -0.041236177
-0.052462045 0.10280017 -0.09841054 0.053467236 0.043899648 0.041512363 -0.03844486 -0.009924658
-0.028574377 0.02114775 -0.10207447 0.041138135 0.05292026 -0.03572298 0.021187283 -0.055542625
-0.098490804 0.059318893 -0.0146659985 -0.062066954 -0.041142747 0.06759892 -0.0019442961 -0.03649149
-0.099584624 -0.030923203 -0.013950378 0.073952116 0.015390061 0.03715443 -0.02581665 -0.008448072
-0.038437374 0.10070991 0.084981136 -0.10797899 0.032795273 -0.047163073 0.014687777 -0.0036434382
0.050033383 0.0706101 -0.07822751 -0.046563573 -0.06992367 0.036441527 0.088792674 -0.07425637
-0.08032547 0.08110548 0.021304078 -0.037327044 0.0122232735 -0.08615811 -0.018961832 0.06300504
-0.09823058 0.10672373 -0.1070655 0.014301211 0.066425644 0.044758387 0.07075281 -0.06181107
-0.011264123 -0.08950086 0.057659723 -0.068235725 -0.043011665 0.015251018 -0.04746409 0.043386422
0.030861981 0.0919558 -0.10394469 -0.01062125 -0.046615876 -0.07474084 -0.051418666 0.075029396
-0.03723766 -0.09097254 -0.02488958 -0.08896886 -0.08967121 -0.07329102 0.09644755 0.10339958
-0.067696184 0.051623605 -0.10262917 0.045588873 -0.1033143 0.07067419 0.031467088 -0.08094214
0.042133786 -0.053134847 0.043076806 -0.011649966 -0.045516513 -0.08053488 -0.0008161217 -0.005994506
0.10519741 0.08358499 0.09433413 0.08138513 0.018283375 0.026303373 -0.089183286 0.033527873

weight f4 [1, 128]
00000000: 7b79 a13d 2bd8 47bd a0b7 cdbb 60c0 5cbb
00000010: dfcd 04bd 3f6c a03d aea5 8cbd 0d50 8bbd
00000020: a8e4 34bd 4e6b aabd f953 a43d d08b a8bb
00000030: 10c5 ce3c c676 213d a009 5b3c 28de 96bc
00000040: 2a71 503d efc8 833d de2d 1f3d 462b 62bd
00000050: 105b ff3b 809c ed3c 40e1 71bd 18ef 26bc
00000060: 8ab1 a7bd 6b02 4abd 946c adbd d097 e83b
00000070: f23f 1f3d 6a49 443d a46a 4cbd 3170 933d
00000080: f826 3dbd 9ae4 123d 80e2 25bb 62f3 8abd
00000090: d159 1dbd 8bf2 32bd aef9 f8bc 0655 133d
000000a0: 0037 75bb b328 b23d c19e 09bd 70e9 8bbd
000000b0: 5bdb 81bd 4b4c b13d 923b 1e3d 67d1 a0bd
000000c0: caa7 593d 68be 62bd 5489 b6bc 5646 283d
000000d0: ee06 e0bc a80c 563c b908 853d 8a51 733d
000000e0: e672 213d 1c32 f03c a029 6f3c eee3 0e3d
000000f0: 7af4 86bd 15bc afbd 2dd9 913d fc65 f73c
00000100: dede 8dbd a534 99bd f083 c1bc ab93 89bd
00000110: 2881 b4bc 792e 903d b2d7 5e3d 183a adbc
00000120: fe5d 1dbd f607 4a3d 3268 9abd 90db 01bd
00000130: 15ba 28bd 00fa d0bc a0e8 323c 4bb4 9e3d
00000140: 541f d93c a30f aabd a72d 813d 807e d43a
00000150: cfe2 aa3d 40b8 38bb d0b3 0dbc 1c7c 003d
00000160: 95f6 90bd 804f 473a 1241 123d 30fe 923b
00000170: bbc2 50bd 857e 47bd e21e 95bd 3fb6 953d
00000180: a6f5 523d 41af ad3d 267a 263d 3f37 9ebd
00000190: c70e b0bd 26fe eabc 288b e03c 01fb 54bd
000001a0: 5273 85bd 3b94 b33d 4038 b7bb 0eb3 a7bd
000001b0: a002 0a3d b677 593d 826b 71bd 2979 b03d
000001c0: e256 3c3d 50ef 0f3d 0a58 613d fdc6 9cbd
000001d0: 02c7 41bd 3031 89bb ab69 a93d 0099 093a
000001e0: 06fd 48bd 02ec a3bd e807 a9bc c60d 383d
000001f0: b6fe ecbc de0f 97bd 9a02 4f3d b53e 813d
0.07884499 -0.04879014 -0.0062779933 -0.0033684 -0.032422896 0.07833146 -0.068675384 -0.06802378
-0.044163376 -0.08321248 0.08023829 -0.00514362 0.025240451 0.03941991 0.013368994 -0.01841648
0.05088917 0.064348094 0.0388621 -0.05521705 0.007792838 0.02900529 -0.059052706 -0.01018884
-0.0818816 -0.049318712 -0.08467975 0.0070981756 0.038879342 0.047921576 -0.049906388 0.07199133
-0.04617974 0.035862543 -0.0025312006 -0.06784703 -0.038415734 -0.04368834 -0.030392494 0.035969757
-0.0037416816 0.08699169 -0.033598665 -0.06831634 -0.06340667 0.0865713 0.03863103 -0.0785244
0.05313853 -0.055357367 -0.02228228 0.041082703 -0.027347054 0.013064541 0.06495804 0.059403934
0.039416216 0.029320769 0.0145973265 0.03488534 -0.06589599 -0.08580796 0.07121501 0.030199997
-0.06927274 -0.07480744 -0.023622483 -0.067176186 -0.022034243 0.07040114 0.05440492 -0.021145865
-0.038419716 0.049324 -0.07539405 -0.03170353 -0.041193087 -0.025509834 0.01091972 0.07749232
0.026504196 -0.08303764 0.063075356 0.0016212016 0.083440416 -0.0028185993 -0.008648828 0.03136836
-0.07078282 0.0007603094 0.035706587 0.004485868 -0.05096696 -0.048704643 -0.07281281 0.07310151
0.0515038 0.08480693 0.040643834 -0.07725381 -0.085965686 -0.02868564 0.027410105 -0.05199719
-0.06516136 0.08768507 -0.0055914223 -0.08188449 0.03369391 0.05309268 -0.058940418 0.086168595
0.045981295 0.035140336 0.0550156 -0.076551415 -0.04730893 -0.004186772 0.08272108 0.0005248934
-0.049069427 -0.08003999 -0.020633653 0.04493501 -0.02893005 -0.07376073 0.05053959 0.063107885
